{"keras_version": "2.0.2", "config": [{"config": {"unit_forget_bias": true, "go_backwards": false, "recurrent_constraint": null, "use_bias": true, "activation": "tanh", "units": 2, "dtype": "float32", "kernel_constraint": null, "batch_input_shape": [null, 1, 48], "kernel_regularizer": null, "implementation": 0, "recurrent_regularizer": null, "return_sequences": true, "recurrent_initializer": {"config": {"gain": 1.0, "seed": null}, "class_name": "Orthogonal"}, "unroll": false, "recurrent_dropout": 0.0, "bias_constraint": null, "stateful": false, "recurrent_activation": "hard_sigmoid", "dropout": 0.0, "name": "lstm_1", "bias_regularizer": null, "trainable": true, "kernel_initializer": {"config": {"mode": "fan_in", "scale": 2.0, "distribution": "normal", "seed": null}, "class_name": "VarianceScaling"}, "bias_initializer": {"config": {}, "class_name": "Zeros"}, "activity_regularizer": null}, "class_name": "LSTM"}, {"config": {"unit_forget_bias": true, "go_backwards": false, "recurrent_constraint": null, "use_bias": true, "activation": "tanh", "units": 4, "kernel_constraint": null, "kernel_regularizer": null, "implementation": 0, "recurrent_regularizer": null, "return_sequences": true, "recurrent_initializer": {"config": {"gain": 1.0, "seed": null}, "class_name": "Orthogonal"}, "unroll": false, "recurrent_dropout": 0.0, "bias_constraint": null, "stateful": false, "recurrent_activation": "hard_sigmoid", "dropout": 0.0, "name": "lstm_2", "bias_regularizer": null, "trainable": true, "kernel_initializer": {"config": {"mode": "fan_in", "scale": 2.0, "distribution": "normal", "seed": null}, "class_name": "VarianceScaling"}, "bias_initializer": {"config": {}, "class_name": "Zeros"}, "activity_regularizer": null}, "class_name": "LSTM"}, {"config": {"unit_forget_bias": true, "go_backwards": false, "recurrent_constraint": null, "use_bias": true, "activation": "tanh", "units": 8, "kernel_constraint": null, "kernel_regularizer": null, "implementation": 0, "recurrent_regularizer": null, "return_sequences": true, "recurrent_initializer": {"config": {"gain": 1.0, "seed": null}, "class_name": "Orthogonal"}, "unroll": false, "recurrent_dropout": 0.0, "bias_constraint": null, "stateful": false, "recurrent_activation": "hard_sigmoid", "dropout": 0.0, "name": "lstm_3", "bias_regularizer": null, "trainable": true, "kernel_initializer": {"config": {"mode": "fan_in", "scale": 2.0, "distribution": "normal", "seed": null}, "class_name": "VarianceScaling"}, "bias_initializer": {"config": {}, "class_name": "Zeros"}, "activity_regularizer": null}, "class_name": "LSTM"}, {"config": {"unit_forget_bias": true, "go_backwards": false, "recurrent_constraint": null, "use_bias": true, "activation": "tanh", "units": 2, "kernel_constraint": null, "kernel_regularizer": null, "implementation": 0, "recurrent_regularizer": null, "return_sequences": true, "recurrent_initializer": {"config": {"gain": 1.0, "seed": null}, "class_name": "Orthogonal"}, "unroll": false, "recurrent_dropout": 0.0, "bias_constraint": null, "stateful": false, "recurrent_activation": "hard_sigmoid", "dropout": 0.0, "name": "lstm_4", "bias_regularizer": null, "trainable": true, "kernel_initializer": {"config": {"mode": "fan_in", "scale": 2.0, "distribution": "normal", "seed": null}, "class_name": "VarianceScaling"}, "bias_initializer": {"config": {}, "class_name": "Zeros"}, "activity_regularizer": null}, "class_name": "LSTM"}, {"config": {"unit_forget_bias": true, "go_backwards": false, "recurrent_constraint": null, "use_bias": true, "activation": "tanh", "units": 8, "kernel_constraint": null, "kernel_regularizer": null, "implementation": 0, "recurrent_regularizer": null, "return_sequences": true, "recurrent_initializer": {"config": {"gain": 1.0, "seed": null}, "class_name": "Orthogonal"}, "unroll": false, "recurrent_dropout": 0.0, "bias_constraint": null, "stateful": false, "recurrent_activation": "hard_sigmoid", "dropout": 0.0, "name": "lstm_5", "bias_regularizer": null, "trainable": true, "kernel_initializer": {"config": {"mode": "fan_in", "scale": 2.0, "distribution": "normal", "seed": null}, "class_name": "VarianceScaling"}, "bias_initializer": {"config": {}, "class_name": "Zeros"}, "activity_regularizer": null}, "class_name": "LSTM"}, {"config": {"unit_forget_bias": true, "go_backwards": false, "recurrent_constraint": null, "use_bias": true, "activation": "tanh", "units": 4, "kernel_constraint": null, "kernel_regularizer": null, "implementation": 0, "recurrent_regularizer": null, "return_sequences": true, "recurrent_initializer": {"config": {"gain": 1.0, "seed": null}, "class_name": "Orthogonal"}, "unroll": false, "recurrent_dropout": 0.0, "bias_constraint": null, "stateful": false, "recurrent_activation": "hard_sigmoid", "dropout": 0.0, "name": "lstm_6", "bias_regularizer": null, "trainable": true, "kernel_initializer": {"config": {"mode": "fan_in", "scale": 2.0, "distribution": "normal", "seed": null}, "class_name": "VarianceScaling"}, "bias_initializer": {"config": {}, "class_name": "Zeros"}, "activity_regularizer": null}, "class_name": "LSTM"}, {"config": {"unit_forget_bias": true, "go_backwards": false, "recurrent_constraint": null, "use_bias": true, "activation": "tanh", "units": 2, "kernel_constraint": null, "kernel_regularizer": null, "implementation": 0, "recurrent_regularizer": null, "return_sequences": true, "recurrent_initializer": {"config": {"gain": 1.0, "seed": null}, "class_name": "Orthogonal"}, "unroll": false, "recurrent_dropout": 0.0, "bias_constraint": null, "stateful": false, "recurrent_activation": "hard_sigmoid", "dropout": 0.0, "name": "lstm_7", "bias_regularizer": null, "trainable": true, "kernel_initializer": {"config": {"mode": "fan_in", "scale": 2.0, "distribution": "normal", "seed": null}, "class_name": "VarianceScaling"}, "bias_initializer": {"config": {}, "class_name": "Zeros"}, "activity_regularizer": null}, "class_name": "LSTM"}, {"config": {"use_bias": true, "activation": "relu", "units": 1, "bias_constraint": null, "kernel_constraint": null, "name": "dense_1", "kernel_regularizer": null, "bias_regularizer": null, "trainable": true, "kernel_initializer": {"config": {"mode": "fan_in", "scale": 2.0, "distribution": "normal", "seed": null}, "class_name": "VarianceScaling"}, "bias_initializer": {"config": {}, "class_name": "Zeros"}, "activity_regularizer": null}, "class_name": "Dense"}], "class_name": "Sequential", "backend": "tensorflow"}