{"backend": "tensorflow", "keras_version": "2.0.2", "config": [{"config": {"implementation": 0, "bias_constraint": null, "unit_forget_bias": true, "dropout": 0.0, "go_backwards": false, "batch_input_shape": [null, 1, 52], "activation": "tanh", "recurrent_dropout": 0.0, "recurrent_initializer": {"config": {"seed": null, "gain": 1.0}, "class_name": "Orthogonal"}, "name": "lstm_1", "stateful": false, "kernel_constraint": null, "bias_initializer": {"config": {}, "class_name": "Zeros"}, "bias_regularizer": null, "unroll": false, "kernel_initializer": {"config": {"mode": "fan_in", "seed": null, "distribution": "normal", "scale": 2.0}, "class_name": "VarianceScaling"}, "activity_regularizer": null, "kernel_regularizer": null, "recurrent_regularizer": null, "recurrent_constraint": null, "dtype": "float32", "use_bias": true, "return_sequences": true, "recurrent_activation": "hard_sigmoid", "units": 2, "trainable": true}, "class_name": "LSTM"}, {"config": {"implementation": 0, "bias_constraint": null, "unit_forget_bias": true, "dropout": 0.0, "go_backwards": false, "activity_regularizer": null, "recurrent_initializer": {"config": {"seed": null, "gain": 1.0}, "class_name": "Orthogonal"}, "name": "lstm_2", "trainable": true, "kernel_constraint": null, "bias_initializer": {"config": {}, "class_name": "Zeros"}, "bias_regularizer": null, "unroll": false, "kernel_initializer": {"config": {"mode": "fan_in", "seed": null, "distribution": "normal", "scale": 2.0}, "class_name": "VarianceScaling"}, "kernel_regularizer": null, "recurrent_regularizer": null, "recurrent_constraint": null, "activation": "tanh", "recurrent_dropout": 0.0, "use_bias": true, "return_sequences": true, "recurrent_activation": "hard_sigmoid", "units": 8, "stateful": false}, "class_name": "LSTM"}, {"config": {"implementation": 0, "bias_constraint": null, "unit_forget_bias": true, "dropout": 0.0, "go_backwards": false, "activity_regularizer": null, "recurrent_initializer": {"config": {"seed": null, "gain": 1.0}, "class_name": "Orthogonal"}, "name": "lstm_3", "trainable": true, "kernel_constraint": null, "bias_initializer": {"config": {}, "class_name": "Zeros"}, "bias_regularizer": null, "unroll": false, "kernel_initializer": {"config": {"mode": "fan_in", "seed": null, "distribution": "normal", "scale": 2.0}, "class_name": "VarianceScaling"}, "kernel_regularizer": null, "recurrent_regularizer": null, "recurrent_constraint": null, "activation": "tanh", "recurrent_dropout": 0.0, "use_bias": true, "return_sequences": true, "recurrent_activation": "hard_sigmoid", "units": 16, "stateful": false}, "class_name": "LSTM"}, {"config": {"implementation": 0, "bias_constraint": null, "unit_forget_bias": true, "dropout": 0.0, "go_backwards": false, "activity_regularizer": null, "recurrent_initializer": {"config": {"seed": null, "gain": 1.0}, "class_name": "Orthogonal"}, "name": "lstm_4", "trainable": true, "kernel_constraint": null, "bias_initializer": {"config": {}, "class_name": "Zeros"}, "bias_regularizer": null, "unroll": false, "kernel_initializer": {"config": {"mode": "fan_in", "seed": null, "distribution": "normal", "scale": 2.0}, "class_name": "VarianceScaling"}, "kernel_regularizer": null, "recurrent_regularizer": null, "recurrent_constraint": null, "activation": "tanh", "recurrent_dropout": 0.0, "use_bias": true, "return_sequences": true, "recurrent_activation": "hard_sigmoid", "units": 128, "stateful": false}, "class_name": "LSTM"}, {"config": {"implementation": 0, "bias_constraint": null, "unit_forget_bias": true, "dropout": 0.0, "go_backwards": false, "activity_regularizer": null, "recurrent_initializer": {"config": {"seed": null, "gain": 1.0}, "class_name": "Orthogonal"}, "name": "lstm_5", "trainable": true, "kernel_constraint": null, "bias_initializer": {"config": {}, "class_name": "Zeros"}, "bias_regularizer": null, "unroll": false, "kernel_initializer": {"config": {"mode": "fan_in", "seed": null, "distribution": "normal", "scale": 2.0}, "class_name": "VarianceScaling"}, "kernel_regularizer": null, "recurrent_regularizer": null, "recurrent_constraint": null, "activation": "tanh", "recurrent_dropout": 0.0, "use_bias": true, "return_sequences": true, "recurrent_activation": "hard_sigmoid", "units": 16, "stateful": false}, "class_name": "LSTM"}, {"config": {"implementation": 0, "bias_constraint": null, "unit_forget_bias": true, "dropout": 0.0, "go_backwards": false, "activity_regularizer": null, "recurrent_initializer": {"config": {"seed": null, "gain": 1.0}, "class_name": "Orthogonal"}, "name": "lstm_6", "trainable": true, "kernel_constraint": null, "bias_initializer": {"config": {}, "class_name": "Zeros"}, "bias_regularizer": null, "unroll": false, "kernel_initializer": {"config": {"mode": "fan_in", "seed": null, "distribution": "normal", "scale": 2.0}, "class_name": "VarianceScaling"}, "kernel_regularizer": null, "recurrent_regularizer": null, "recurrent_constraint": null, "activation": "tanh", "recurrent_dropout": 0.0, "use_bias": true, "return_sequences": true, "recurrent_activation": "hard_sigmoid", "units": 8, "stateful": false}, "class_name": "LSTM"}, {"config": {"implementation": 0, "bias_constraint": null, "unit_forget_bias": true, "dropout": 0.0, "go_backwards": false, "activity_regularizer": null, "recurrent_initializer": {"config": {"seed": null, "gain": 1.0}, "class_name": "Orthogonal"}, "name": "lstm_7", "trainable": true, "kernel_constraint": null, "bias_initializer": {"config": {}, "class_name": "Zeros"}, "bias_regularizer": null, "unroll": false, "kernel_initializer": {"config": {"mode": "fan_in", "seed": null, "distribution": "normal", "scale": 2.0}, "class_name": "VarianceScaling"}, "kernel_regularizer": null, "recurrent_regularizer": null, "recurrent_constraint": null, "activation": "tanh", "recurrent_dropout": 0.0, "use_bias": true, "return_sequences": true, "recurrent_activation": "hard_sigmoid", "units": 2, "stateful": false}, "class_name": "LSTM"}, {"config": {"bias_constraint": null, "kernel_initializer": {"config": {"mode": "fan_in", "seed": null, "distribution": "normal", "scale": 2.0}, "class_name": "VarianceScaling"}, "activation": "relu", "kernel_regularizer": null, "activity_regularizer": null, "name": "dense_1", "bias_initializer": {"config": {}, "class_name": "Zeros"}, "kernel_constraint": null, "use_bias": true, "trainable": true, "units": 1, "bias_regularizer": null}, "class_name": "Dense"}], "class_name": "Sequential"}