{"config": [{"config": {"units": 2, "unit_forget_bias": true, "go_backwards": false, "dtype": "float32", "implementation": 0, "recurrent_initializer": {"config": {"gain": 1.0, "seed": null}, "class_name": "Orthogonal"}, "trainable": true, "use_bias": true, "unroll": false, "name": "lstm_1", "recurrent_constraint": null, "stateful": false, "recurrent_regularizer": null, "batch_input_shape": [null, 1, 52], "dropout": 0.0, "kernel_initializer": {"config": {"scale": 2.0, "mode": "fan_in", "distribution": "normal", "seed": null}, "class_name": "VarianceScaling"}, "bias_initializer": {"config": {}, "class_name": "Zeros"}, "recurrent_dropout": 0.0, "kernel_regularizer": null, "recurrent_activation": "hard_sigmoid", "bias_regularizer": null, "kernel_constraint": null, "activity_regularizer": null, "activation": "tanh", "bias_constraint": null, "return_sequences": true}, "class_name": "LSTM"}, {"config": {"units": 8, "unit_forget_bias": true, "go_backwards": false, "implementation": 0, "recurrent_initializer": {"config": {"gain": 1.0, "seed": null}, "class_name": "Orthogonal"}, "stateful": false, "use_bias": true, "unroll": false, "name": "lstm_2", "recurrent_constraint": null, "trainable": true, "recurrent_regularizer": null, "dropout": 0.0, "kernel_initializer": {"config": {"scale": 2.0, "mode": "fan_in", "distribution": "normal", "seed": null}, "class_name": "VarianceScaling"}, "bias_initializer": {"config": {}, "class_name": "Zeros"}, "recurrent_dropout": 0.0, "kernel_regularizer": null, "recurrent_activation": "hard_sigmoid", "return_sequences": true, "kernel_constraint": null, "activity_regularizer": null, "activation": "tanh", "bias_constraint": null, "bias_regularizer": null}, "class_name": "LSTM"}, {"config": {"units": 16, "unit_forget_bias": true, "go_backwards": false, "implementation": 0, "recurrent_initializer": {"config": {"gain": 1.0, "seed": null}, "class_name": "Orthogonal"}, "stateful": false, "use_bias": true, "unroll": false, "name": "lstm_3", "recurrent_constraint": null, "trainable": true, "recurrent_regularizer": null, "dropout": 0.0, "kernel_initializer": {"config": {"scale": 2.0, "mode": "fan_in", "distribution": "normal", "seed": null}, "class_name": "VarianceScaling"}, "bias_initializer": {"config": {}, "class_name": "Zeros"}, "recurrent_dropout": 0.0, "kernel_regularizer": null, "recurrent_activation": "hard_sigmoid", "return_sequences": true, "kernel_constraint": null, "activity_regularizer": null, "activation": "tanh", "bias_constraint": null, "bias_regularizer": null}, "class_name": "LSTM"}, {"config": {"units": 128, "unit_forget_bias": true, "go_backwards": false, "implementation": 0, "recurrent_initializer": {"config": {"gain": 1.0, "seed": null}, "class_name": "Orthogonal"}, "stateful": false, "use_bias": true, "unroll": false, "name": "lstm_4", "recurrent_constraint": null, "trainable": true, "recurrent_regularizer": null, "dropout": 0.0, "kernel_initializer": {"config": {"scale": 2.0, "mode": "fan_in", "distribution": "normal", "seed": null}, "class_name": "VarianceScaling"}, "bias_initializer": {"config": {}, "class_name": "Zeros"}, "recurrent_dropout": 0.0, "kernel_regularizer": null, "recurrent_activation": "hard_sigmoid", "return_sequences": true, "kernel_constraint": null, "activity_regularizer": null, "activation": "tanh", "bias_constraint": null, "bias_regularizer": null}, "class_name": "LSTM"}, {"config": {"units": 16, "unit_forget_bias": true, "go_backwards": false, "implementation": 0, "recurrent_initializer": {"config": {"gain": 1.0, "seed": null}, "class_name": "Orthogonal"}, "stateful": false, "use_bias": true, "unroll": false, "name": "lstm_5", "recurrent_constraint": null, "trainable": true, "recurrent_regularizer": null, "dropout": 0.0, "kernel_initializer": {"config": {"scale": 2.0, "mode": "fan_in", "distribution": "normal", "seed": null}, "class_name": "VarianceScaling"}, "bias_initializer": {"config": {}, "class_name": "Zeros"}, "recurrent_dropout": 0.0, "kernel_regularizer": null, "recurrent_activation": "hard_sigmoid", "return_sequences": true, "kernel_constraint": null, "activity_regularizer": null, "activation": "tanh", "bias_constraint": null, "bias_regularizer": null}, "class_name": "LSTM"}, {"config": {"units": 8, "unit_forget_bias": true, "go_backwards": false, "implementation": 0, "recurrent_initializer": {"config": {"gain": 1.0, "seed": null}, "class_name": "Orthogonal"}, "stateful": false, "use_bias": true, "unroll": false, "name": "lstm_6", "recurrent_constraint": null, "trainable": true, "recurrent_regularizer": null, "dropout": 0.0, "kernel_initializer": {"config": {"scale": 2.0, "mode": "fan_in", "distribution": "normal", "seed": null}, "class_name": "VarianceScaling"}, "bias_initializer": {"config": {}, "class_name": "Zeros"}, "recurrent_dropout": 0.0, "kernel_regularizer": null, "recurrent_activation": "hard_sigmoid", "return_sequences": true, "kernel_constraint": null, "activity_regularizer": null, "activation": "tanh", "bias_constraint": null, "bias_regularizer": null}, "class_name": "LSTM"}, {"config": {"units": 2, "unit_forget_bias": true, "go_backwards": false, "implementation": 0, "recurrent_initializer": {"config": {"gain": 1.0, "seed": null}, "class_name": "Orthogonal"}, "stateful": false, "use_bias": true, "unroll": false, "name": "lstm_7", "recurrent_constraint": null, "trainable": true, "recurrent_regularizer": null, "dropout": 0.0, "kernel_initializer": {"config": {"scale": 2.0, "mode": "fan_in", "distribution": "normal", "seed": null}, "class_name": "VarianceScaling"}, "bias_initializer": {"config": {}, "class_name": "Zeros"}, "recurrent_dropout": 0.0, "kernel_regularizer": null, "recurrent_activation": "hard_sigmoid", "return_sequences": true, "kernel_constraint": null, "activity_regularizer": null, "activation": "tanh", "bias_constraint": null, "bias_regularizer": null}, "class_name": "LSTM"}, {"config": {"units": 1, "kernel_constraint": null, "bias_initializer": {"config": {}, "class_name": "Zeros"}, "trainable": true, "kernel_regularizer": null, "use_bias": true, "bias_regularizer": null, "kernel_initializer": {"config": {"scale": 2.0, "mode": "fan_in", "distribution": "normal", "seed": null}, "class_name": "VarianceScaling"}, "activity_regularizer": null, "bias_constraint": null, "name": "dense_1", "activation": "relu"}, "class_name": "Dense"}], "class_name": "Sequential", "keras_version": "2.0.2", "backend": "tensorflow"}