{"config": [{"config": {"implementation": 0, "recurrent_regularizer": null, "go_backwards": false, "kernel_initializer": {"config": {"seed": null, "scale": 2.0, "distribution": "normal", "mode": "fan_in"}, "class_name": "VarianceScaling"}, "recurrent_activation": "hard_sigmoid", "return_sequences": true, "dtype": "float32", "recurrent_initializer": {"config": {"seed": null, "gain": 1.0}, "class_name": "Orthogonal"}, "trainable": true, "unit_forget_bias": true, "stateful": false, "use_bias": true, "dropout": 0.0, "bias_regularizer": null, "unroll": false, "kernel_regularizer": null, "units": 2, "activity_regularizer": null, "recurrent_constraint": null, "batch_input_shape": [null, 1, 48], "bias_constraint": null, "recurrent_dropout": 0.0, "bias_initializer": {"config": {}, "class_name": "Zeros"}, "kernel_constraint": null, "activation": "tanh", "name": "lstm_1"}, "class_name": "LSTM"}, {"config": {"implementation": 0, "recurrent_regularizer": null, "go_backwards": false, "kernel_initializer": {"config": {"seed": null, "scale": 2.0, "distribution": "normal", "mode": "fan_in"}, "class_name": "VarianceScaling"}, "recurrent_activation": "hard_sigmoid", "return_sequences": true, "recurrent_initializer": {"config": {"seed": null, "gain": 1.0}, "class_name": "Orthogonal"}, "trainable": true, "unit_forget_bias": true, "use_bias": true, "dropout": 0.0, "bias_regularizer": null, "unroll": false, "kernel_regularizer": null, "units": 8, "activity_regularizer": null, "recurrent_constraint": null, "recurrent_dropout": 0.0, "bias_constraint": null, "stateful": false, "bias_initializer": {"config": {}, "class_name": "Zeros"}, "kernel_constraint": null, "activation": "tanh", "name": "lstm_2"}, "class_name": "LSTM"}, {"config": {"implementation": 0, "recurrent_regularizer": null, "go_backwards": false, "kernel_initializer": {"config": {"seed": null, "scale": 2.0, "distribution": "normal", "mode": "fan_in"}, "class_name": "VarianceScaling"}, "recurrent_activation": "hard_sigmoid", "return_sequences": true, "recurrent_initializer": {"config": {"seed": null, "gain": 1.0}, "class_name": "Orthogonal"}, "trainable": true, "unit_forget_bias": true, "use_bias": true, "dropout": 0.0, "bias_regularizer": null, "unroll": false, "kernel_regularizer": null, "units": 16, "activity_regularizer": null, "recurrent_constraint": null, "recurrent_dropout": 0.0, "bias_constraint": null, "stateful": false, "bias_initializer": {"config": {}, "class_name": "Zeros"}, "kernel_constraint": null, "activation": "tanh", "name": "lstm_3"}, "class_name": "LSTM"}, {"config": {"implementation": 0, "recurrent_regularizer": null, "go_backwards": false, "kernel_initializer": {"config": {"seed": null, "scale": 2.0, "distribution": "normal", "mode": "fan_in"}, "class_name": "VarianceScaling"}, "recurrent_activation": "hard_sigmoid", "return_sequences": true, "recurrent_initializer": {"config": {"seed": null, "gain": 1.0}, "class_name": "Orthogonal"}, "trainable": true, "unit_forget_bias": true, "use_bias": true, "dropout": 0.0, "bias_regularizer": null, "unroll": false, "kernel_regularizer": null, "units": 128, "activity_regularizer": null, "recurrent_constraint": null, "recurrent_dropout": 0.0, "bias_constraint": null, "stateful": false, "bias_initializer": {"config": {}, "class_name": "Zeros"}, "kernel_constraint": null, "activation": "tanh", "name": "lstm_4"}, "class_name": "LSTM"}, {"config": {"implementation": 0, "recurrent_regularizer": null, "go_backwards": false, "kernel_initializer": {"config": {"seed": null, "scale": 2.0, "distribution": "normal", "mode": "fan_in"}, "class_name": "VarianceScaling"}, "recurrent_activation": "hard_sigmoid", "return_sequences": true, "recurrent_initializer": {"config": {"seed": null, "gain": 1.0}, "class_name": "Orthogonal"}, "trainable": true, "unit_forget_bias": true, "use_bias": true, "dropout": 0.0, "bias_regularizer": null, "unroll": false, "kernel_regularizer": null, "units": 16, "activity_regularizer": null, "recurrent_constraint": null, "recurrent_dropout": 0.0, "bias_constraint": null, "stateful": false, "bias_initializer": {"config": {}, "class_name": "Zeros"}, "kernel_constraint": null, "activation": "tanh", "name": "lstm_5"}, "class_name": "LSTM"}, {"config": {"implementation": 0, "recurrent_regularizer": null, "go_backwards": false, "kernel_initializer": {"config": {"seed": null, "scale": 2.0, "distribution": "normal", "mode": "fan_in"}, "class_name": "VarianceScaling"}, "recurrent_activation": "hard_sigmoid", "return_sequences": true, "recurrent_initializer": {"config": {"seed": null, "gain": 1.0}, "class_name": "Orthogonal"}, "trainable": true, "unit_forget_bias": true, "use_bias": true, "dropout": 0.0, "bias_regularizer": null, "unroll": false, "kernel_regularizer": null, "units": 8, "activity_regularizer": null, "recurrent_constraint": null, "recurrent_dropout": 0.0, "bias_constraint": null, "stateful": false, "bias_initializer": {"config": {}, "class_name": "Zeros"}, "kernel_constraint": null, "activation": "tanh", "name": "lstm_6"}, "class_name": "LSTM"}, {"config": {"implementation": 0, "recurrent_regularizer": null, "go_backwards": false, "kernel_initializer": {"config": {"seed": null, "scale": 2.0, "distribution": "normal", "mode": "fan_in"}, "class_name": "VarianceScaling"}, "recurrent_activation": "hard_sigmoid", "return_sequences": true, "recurrent_initializer": {"config": {"seed": null, "gain": 1.0}, "class_name": "Orthogonal"}, "trainable": true, "unit_forget_bias": true, "use_bias": true, "dropout": 0.0, "bias_regularizer": null, "unroll": false, "kernel_regularizer": null, "units": 2, "activity_regularizer": null, "recurrent_constraint": null, "recurrent_dropout": 0.0, "bias_constraint": null, "stateful": false, "bias_initializer": {"config": {}, "class_name": "Zeros"}, "kernel_constraint": null, "activation": "tanh", "name": "lstm_7"}, "class_name": "LSTM"}, {"config": {"kernel_regularizer": null, "name": "dense_1", "units": 1, "kernel_initializer": {"config": {"seed": null, "scale": 2.0, "distribution": "normal", "mode": "fan_in"}, "class_name": "VarianceScaling"}, "activity_regularizer": null, "bias_constraint": null, "use_bias": true, "bias_initializer": {"config": {}, "class_name": "Zeros"}, "kernel_constraint": null, "bias_regularizer": null, "activation": "relu", "trainable": true}, "class_name": "Dense"}], "class_name": "Sequential", "backend": "tensorflow", "keras_version": "2.0.2"}