{"config": [{"config": {"bias_constraint": null, "recurrent_dropout": 0.0, "trainable": true, "activity_regularizer": null, "go_backwards": false, "bias_regularizer": null, "use_bias": true, "name": "lstm_1", "dtype": "float32", "units": 2, "recurrent_activation": "hard_sigmoid", "recurrent_initializer": {"config": {"gain": 1.0, "seed": null}, "class_name": "Orthogonal"}, "batch_input_shape": [null, 1, 48], "unroll": false, "kernel_constraint": null, "kernel_regularizer": null, "recurrent_constraint": null, "unit_forget_bias": true, "stateful": false, "bias_initializer": {"config": {}, "class_name": "Zeros"}, "kernel_initializer": {"config": {"seed": null, "mode": "fan_in", "scale": 2.0, "distribution": "normal"}, "class_name": "VarianceScaling"}, "dropout": 0.0, "implementation": 0, "return_sequences": true, "recurrent_regularizer": null, "activation": "tanh"}, "class_name": "LSTM"}, {"config": {"bias_constraint": null, "recurrent_dropout": 0.0, "trainable": true, "activity_regularizer": null, "go_backwards": false, "bias_regularizer": null, "recurrent_initializer": {"config": {"gain": 1.0, "seed": null}, "class_name": "Orthogonal"}, "name": "lstm_2", "stateful": false, "units": 2, "recurrent_activation": "hard_sigmoid", "use_bias": true, "unroll": false, "kernel_constraint": null, "kernel_regularizer": null, "recurrent_constraint": null, "unit_forget_bias": true, "bias_initializer": {"config": {}, "class_name": "Zeros"}, "kernel_initializer": {"config": {"seed": null, "mode": "fan_in", "scale": 2.0, "distribution": "normal"}, "class_name": "VarianceScaling"}, "dropout": 0.0, "implementation": 0, "return_sequences": true, "recurrent_regularizer": null, "activation": "tanh"}, "class_name": "LSTM"}, {"config": {"bias_constraint": null, "recurrent_dropout": 0.0, "trainable": true, "activity_regularizer": null, "go_backwards": false, "bias_regularizer": null, "recurrent_initializer": {"config": {"gain": 1.0, "seed": null}, "class_name": "Orthogonal"}, "name": "lstm_3", "stateful": false, "units": 2, "recurrent_activation": "hard_sigmoid", "use_bias": true, "unroll": false, "kernel_constraint": null, "kernel_regularizer": null, "recurrent_constraint": null, "unit_forget_bias": true, "bias_initializer": {"config": {}, "class_name": "Zeros"}, "kernel_initializer": {"config": {"seed": null, "mode": "fan_in", "scale": 2.0, "distribution": "normal"}, "class_name": "VarianceScaling"}, "dropout": 0.0, "implementation": 0, "return_sequences": true, "recurrent_regularizer": null, "activation": "tanh"}, "class_name": "LSTM"}, {"config": {"bias_constraint": null, "recurrent_dropout": 0.0, "trainable": true, "activity_regularizer": null, "go_backwards": false, "bias_regularizer": null, "recurrent_initializer": {"config": {"gain": 1.0, "seed": null}, "class_name": "Orthogonal"}, "name": "lstm_4", "stateful": false, "units": 2, "recurrent_activation": "hard_sigmoid", "use_bias": true, "unroll": false, "kernel_constraint": null, "kernel_regularizer": null, "recurrent_constraint": null, "unit_forget_bias": true, "bias_initializer": {"config": {}, "class_name": "Zeros"}, "kernel_initializer": {"config": {"seed": null, "mode": "fan_in", "scale": 2.0, "distribution": "normal"}, "class_name": "VarianceScaling"}, "dropout": 0.0, "implementation": 0, "return_sequences": true, "recurrent_regularizer": null, "activation": "tanh"}, "class_name": "LSTM"}, {"config": {"bias_constraint": null, "recurrent_dropout": 0.0, "trainable": true, "activity_regularizer": null, "go_backwards": false, "bias_regularizer": null, "recurrent_initializer": {"config": {"gain": 1.0, "seed": null}, "class_name": "Orthogonal"}, "name": "lstm_5", "stateful": false, "units": 2, "recurrent_activation": "hard_sigmoid", "use_bias": true, "unroll": false, "kernel_constraint": null, "kernel_regularizer": null, "recurrent_constraint": null, "unit_forget_bias": true, "bias_initializer": {"config": {}, "class_name": "Zeros"}, "kernel_initializer": {"config": {"seed": null, "mode": "fan_in", "scale": 2.0, "distribution": "normal"}, "class_name": "VarianceScaling"}, "dropout": 0.0, "implementation": 0, "return_sequences": true, "recurrent_regularizer": null, "activation": "tanh"}, "class_name": "LSTM"}, {"config": {"bias_constraint": null, "recurrent_dropout": 0.0, "trainable": true, "activity_regularizer": null, "go_backwards": false, "bias_regularizer": null, "recurrent_initializer": {"config": {"gain": 1.0, "seed": null}, "class_name": "Orthogonal"}, "name": "lstm_6", "stateful": false, "units": 2, "recurrent_activation": "hard_sigmoid", "use_bias": true, "unroll": false, "kernel_constraint": null, "kernel_regularizer": null, "recurrent_constraint": null, "unit_forget_bias": true, "bias_initializer": {"config": {}, "class_name": "Zeros"}, "kernel_initializer": {"config": {"seed": null, "mode": "fan_in", "scale": 2.0, "distribution": "normal"}, "class_name": "VarianceScaling"}, "dropout": 0.0, "implementation": 0, "return_sequences": true, "recurrent_regularizer": null, "activation": "tanh"}, "class_name": "LSTM"}, {"config": {"bias_constraint": null, "recurrent_dropout": 0.0, "trainable": true, "activity_regularizer": null, "go_backwards": false, "bias_regularizer": null, "recurrent_initializer": {"config": {"gain": 1.0, "seed": null}, "class_name": "Orthogonal"}, "name": "lstm_7", "stateful": false, "units": 2, "recurrent_activation": "hard_sigmoid", "use_bias": true, "unroll": false, "kernel_constraint": null, "kernel_regularizer": null, "recurrent_constraint": null, "unit_forget_bias": true, "bias_initializer": {"config": {}, "class_name": "Zeros"}, "kernel_initializer": {"config": {"seed": null, "mode": "fan_in", "scale": 2.0, "distribution": "normal"}, "class_name": "VarianceScaling"}, "dropout": 0.0, "implementation": 0, "return_sequences": true, "recurrent_regularizer": null, "activation": "tanh"}, "class_name": "LSTM"}, {"config": {"bias_constraint": null, "recurrent_dropout": 0.0, "trainable": true, "activity_regularizer": null, "go_backwards": false, "bias_regularizer": null, "recurrent_initializer": {"config": {"gain": 1.0, "seed": null}, "class_name": "Orthogonal"}, "name": "lstm_8", "stateful": false, "units": 2, "recurrent_activation": "hard_sigmoid", "use_bias": true, "unroll": false, "kernel_constraint": null, "kernel_regularizer": null, "recurrent_constraint": null, "unit_forget_bias": true, "bias_initializer": {"config": {}, "class_name": "Zeros"}, "kernel_initializer": {"config": {"seed": null, "mode": "fan_in", "scale": 2.0, "distribution": "normal"}, "class_name": "VarianceScaling"}, "dropout": 0.0, "implementation": 0, "return_sequences": true, "recurrent_regularizer": null, "activation": "tanh"}, "class_name": "LSTM"}, {"config": {"use_bias": true, "bias_constraint": null, "trainable": true, "kernel_regularizer": null, "kernel_initializer": {"config": {"seed": null, "mode": "fan_in", "scale": 2.0, "distribution": "normal"}, "class_name": "VarianceScaling"}, "bias_regularizer": null, "bias_initializer": {"config": {}, "class_name": "Zeros"}, "name": "dense_1", "units": 1, "kernel_constraint": null, "activity_regularizer": null, "activation": "relu"}, "class_name": "Dense"}], "backend": "tensorflow", "class_name": "Sequential", "keras_version": "2.0.2"}