{"backend": "tensorflow", "config": [{"config": {"bias_initializer": {"config": {}, "class_name": "Zeros"}, "dropout": 0.0, "bias_constraint": null, "unit_forget_bias": true, "go_backwards": false, "batch_input_shape": [null, 1, 48], "recurrent_regularizer": null, "activity_regularizer": null, "implementation": 0, "use_bias": true, "units": 2, "kernel_initializer": {"config": {"distribution": "normal", "seed": null, "mode": "fan_in", "scale": 2.0}, "class_name": "VarianceScaling"}, "recurrent_activation": "hard_sigmoid", "trainable": true, "name": "lstm_1", "activation": "tanh", "kernel_regularizer": null, "kernel_constraint": null, "dtype": "float32", "return_sequences": true, "recurrent_initializer": {"config": {"gain": 1.0, "seed": null}, "class_name": "Orthogonal"}, "stateful": false, "bias_regularizer": null, "recurrent_dropout": 0.0, "unroll": false, "recurrent_constraint": null}, "class_name": "LSTM"}, {"config": {"bias_initializer": {"config": {}, "class_name": "Zeros"}, "dropout": 0.0, "bias_constraint": null, "unit_forget_bias": true, "go_backwards": false, "recurrent_regularizer": null, "activity_regularizer": null, "implementation": 0, "use_bias": true, "units": 2, "kernel_initializer": {"config": {"distribution": "normal", "seed": null, "mode": "fan_in", "scale": 2.0}, "class_name": "VarianceScaling"}, "recurrent_activation": "hard_sigmoid", "trainable": true, "name": "lstm_2", "activation": "tanh", "kernel_regularizer": null, "kernel_constraint": null, "return_sequences": true, "recurrent_initializer": {"config": {"gain": 1.0, "seed": null}, "class_name": "Orthogonal"}, "stateful": false, "bias_regularizer": null, "recurrent_dropout": 0.0, "unroll": false, "recurrent_constraint": null}, "class_name": "LSTM"}, {"config": {"bias_initializer": {"config": {}, "class_name": "Zeros"}, "dropout": 0.0, "bias_constraint": null, "unit_forget_bias": true, "go_backwards": false, "recurrent_regularizer": null, "activity_regularizer": null, "implementation": 0, "use_bias": true, "units": 2, "kernel_initializer": {"config": {"distribution": "normal", "seed": null, "mode": "fan_in", "scale": 2.0}, "class_name": "VarianceScaling"}, "recurrent_activation": "hard_sigmoid", "trainable": true, "name": "lstm_3", "activation": "tanh", "kernel_regularizer": null, "kernel_constraint": null, "return_sequences": true, "recurrent_initializer": {"config": {"gain": 1.0, "seed": null}, "class_name": "Orthogonal"}, "stateful": false, "bias_regularizer": null, "recurrent_dropout": 0.0, "unroll": false, "recurrent_constraint": null}, "class_name": "LSTM"}, {"config": {"bias_initializer": {"config": {}, "class_name": "Zeros"}, "dropout": 0.0, "bias_constraint": null, "unit_forget_bias": true, "go_backwards": false, "recurrent_regularizer": null, "activity_regularizer": null, "implementation": 0, "use_bias": true, "units": 2, "kernel_initializer": {"config": {"distribution": "normal", "seed": null, "mode": "fan_in", "scale": 2.0}, "class_name": "VarianceScaling"}, "recurrent_activation": "hard_sigmoid", "trainable": true, "name": "lstm_4", "activation": "tanh", "kernel_regularizer": null, "kernel_constraint": null, "return_sequences": true, "recurrent_initializer": {"config": {"gain": 1.0, "seed": null}, "class_name": "Orthogonal"}, "stateful": false, "bias_regularizer": null, "recurrent_dropout": 0.0, "unroll": false, "recurrent_constraint": null}, "class_name": "LSTM"}, {"config": {"bias_initializer": {"config": {}, "class_name": "Zeros"}, "dropout": 0.0, "bias_constraint": null, "unit_forget_bias": true, "go_backwards": false, "recurrent_regularizer": null, "activity_regularizer": null, "implementation": 0, "use_bias": true, "units": 2, "kernel_initializer": {"config": {"distribution": "normal", "seed": null, "mode": "fan_in", "scale": 2.0}, "class_name": "VarianceScaling"}, "recurrent_activation": "hard_sigmoid", "trainable": true, "name": "lstm_5", "activation": "tanh", "kernel_regularizer": null, "kernel_constraint": null, "return_sequences": true, "recurrent_initializer": {"config": {"gain": 1.0, "seed": null}, "class_name": "Orthogonal"}, "stateful": false, "bias_regularizer": null, "recurrent_dropout": 0.0, "unroll": false, "recurrent_constraint": null}, "class_name": "LSTM"}, {"config": {"bias_initializer": {"config": {}, "class_name": "Zeros"}, "dropout": 0.0, "bias_constraint": null, "unit_forget_bias": true, "go_backwards": false, "recurrent_regularizer": null, "activity_regularizer": null, "implementation": 0, "use_bias": true, "units": 2, "kernel_initializer": {"config": {"distribution": "normal", "seed": null, "mode": "fan_in", "scale": 2.0}, "class_name": "VarianceScaling"}, "recurrent_activation": "hard_sigmoid", "trainable": true, "name": "lstm_6", "activation": "tanh", "kernel_regularizer": null, "kernel_constraint": null, "return_sequences": true, "recurrent_initializer": {"config": {"gain": 1.0, "seed": null}, "class_name": "Orthogonal"}, "stateful": false, "bias_regularizer": null, "recurrent_dropout": 0.0, "unroll": false, "recurrent_constraint": null}, "class_name": "LSTM"}, {"config": {"bias_initializer": {"config": {}, "class_name": "Zeros"}, "dropout": 0.0, "bias_constraint": null, "unit_forget_bias": true, "go_backwards": false, "recurrent_regularizer": null, "activity_regularizer": null, "implementation": 0, "use_bias": true, "units": 2, "kernel_initializer": {"config": {"distribution": "normal", "seed": null, "mode": "fan_in", "scale": 2.0}, "class_name": "VarianceScaling"}, "recurrent_activation": "hard_sigmoid", "trainable": true, "name": "lstm_7", "activation": "tanh", "kernel_regularizer": null, "kernel_constraint": null, "return_sequences": true, "recurrent_initializer": {"config": {"gain": 1.0, "seed": null}, "class_name": "Orthogonal"}, "stateful": false, "bias_regularizer": null, "recurrent_dropout": 0.0, "unroll": false, "recurrent_constraint": null}, "class_name": "LSTM"}, {"config": {"bias_initializer": {"config": {}, "class_name": "Zeros"}, "dropout": 0.0, "bias_constraint": null, "unit_forget_bias": true, "go_backwards": false, "recurrent_regularizer": null, "activity_regularizer": null, "implementation": 0, "use_bias": true, "units": 2, "kernel_initializer": {"config": {"distribution": "normal", "seed": null, "mode": "fan_in", "scale": 2.0}, "class_name": "VarianceScaling"}, "recurrent_activation": "hard_sigmoid", "trainable": true, "name": "lstm_8", "activation": "tanh", "kernel_regularizer": null, "kernel_constraint": null, "return_sequences": true, "recurrent_initializer": {"config": {"gain": 1.0, "seed": null}, "class_name": "Orthogonal"}, "stateful": false, "bias_regularizer": null, "recurrent_dropout": 0.0, "unroll": false, "recurrent_constraint": null}, "class_name": "LSTM"}, {"config": {"activity_regularizer": null, "bias_initializer": {"config": {}, "class_name": "Zeros"}, "bias_constraint": null, "trainable": true, "name": "dense_1", "activation": "relu", "kernel_regularizer": null, "kernel_constraint": null, "bias_regularizer": null, "use_bias": true, "units": 1, "kernel_initializer": {"config": {"distribution": "normal", "seed": null, "mode": "fan_in", "scale": 2.0}, "class_name": "VarianceScaling"}}, "class_name": "Dense"}], "keras_version": "2.0.2", "class_name": "Sequential"}