{"keras_version": "2.0.2", "config": [{"class_name": "LSTM", "config": {"return_sequences": true, "batch_input_shape": [null, 1, 52], "dropout": 0.0, "recurrent_initializer": {"class_name": "Orthogonal", "config": {"gain": 1.0, "seed": null}}, "activation": "tanh", "unroll": false, "bias_constraint": null, "recurrent_dropout": 0.0, "kernel_regularizer": null, "recurrent_constraint": null, "unit_forget_bias": true, "dtype": "float32", "bias_regularizer": null, "bias_initializer": {"class_name": "Zeros", "config": {}}, "recurrent_regularizer": null, "activity_regularizer": null, "go_backwards": false, "kernel_initializer": {"class_name": "VarianceScaling", "config": {"mode": "fan_in", "scale": 2.0, "seed": null, "distribution": "normal"}}, "implementation": 0, "use_bias": true, "stateful": false, "recurrent_activation": "hard_sigmoid", "trainable": true, "name": "lstm_1", "kernel_constraint": null, "units": 2}}, {"class_name": "LSTM", "config": {"return_sequences": true, "stateful": false, "dropout": 0.0, "recurrent_initializer": {"class_name": "Orthogonal", "config": {"gain": 1.0, "seed": null}}, "activation": "tanh", "unroll": false, "bias_constraint": null, "recurrent_dropout": 0.0, "kernel_regularizer": null, "recurrent_constraint": null, "unit_forget_bias": true, "implementation": 0, "recurrent_activation": "hard_sigmoid", "bias_initializer": {"class_name": "Zeros", "config": {}}, "recurrent_regularizer": null, "activity_regularizer": null, "go_backwards": false, "kernel_initializer": {"class_name": "VarianceScaling", "config": {"mode": "fan_in", "scale": 2.0, "seed": null, "distribution": "normal"}}, "use_bias": true, "bias_regularizer": null, "trainable": true, "name": "lstm_2", "kernel_constraint": null, "units": 8}}, {"class_name": "LSTM", "config": {"return_sequences": true, "stateful": false, "dropout": 0.0, "recurrent_initializer": {"class_name": "Orthogonal", "config": {"gain": 1.0, "seed": null}}, "activation": "tanh", "unroll": false, "bias_constraint": null, "recurrent_dropout": 0.0, "kernel_regularizer": null, "recurrent_constraint": null, "unit_forget_bias": true, "implementation": 0, "recurrent_activation": "hard_sigmoid", "bias_initializer": {"class_name": "Zeros", "config": {}}, "recurrent_regularizer": null, "activity_regularizer": null, "go_backwards": false, "kernel_initializer": {"class_name": "VarianceScaling", "config": {"mode": "fan_in", "scale": 2.0, "seed": null, "distribution": "normal"}}, "use_bias": true, "bias_regularizer": null, "trainable": true, "name": "lstm_3", "kernel_constraint": null, "units": 4}}, {"class_name": "LSTM", "config": {"return_sequences": true, "stateful": false, "dropout": 0.0, "recurrent_initializer": {"class_name": "Orthogonal", "config": {"gain": 1.0, "seed": null}}, "activation": "tanh", "unroll": false, "bias_constraint": null, "recurrent_dropout": 0.0, "kernel_regularizer": null, "recurrent_constraint": null, "unit_forget_bias": true, "implementation": 0, "recurrent_activation": "hard_sigmoid", "bias_initializer": {"class_name": "Zeros", "config": {}}, "recurrent_regularizer": null, "activity_regularizer": null, "go_backwards": false, "kernel_initializer": {"class_name": "VarianceScaling", "config": {"mode": "fan_in", "scale": 2.0, "seed": null, "distribution": "normal"}}, "use_bias": true, "bias_regularizer": null, "trainable": true, "name": "lstm_4", "kernel_constraint": null, "units": 16}}, {"class_name": "LSTM", "config": {"return_sequences": true, "stateful": false, "dropout": 0.0, "recurrent_initializer": {"class_name": "Orthogonal", "config": {"gain": 1.0, "seed": null}}, "activation": "tanh", "unroll": false, "bias_constraint": null, "recurrent_dropout": 0.0, "kernel_regularizer": null, "recurrent_constraint": null, "unit_forget_bias": true, "implementation": 0, "recurrent_activation": "hard_sigmoid", "bias_initializer": {"class_name": "Zeros", "config": {}}, "recurrent_regularizer": null, "activity_regularizer": null, "go_backwards": false, "kernel_initializer": {"class_name": "VarianceScaling", "config": {"mode": "fan_in", "scale": 2.0, "seed": null, "distribution": "normal"}}, "use_bias": true, "bias_regularizer": null, "trainable": true, "name": "lstm_5", "kernel_constraint": null, "units": 128}}, {"class_name": "LSTM", "config": {"return_sequences": true, "stateful": false, "dropout": 0.0, "recurrent_initializer": {"class_name": "Orthogonal", "config": {"gain": 1.0, "seed": null}}, "activation": "tanh", "unroll": false, "bias_constraint": null, "recurrent_dropout": 0.0, "kernel_regularizer": null, "recurrent_constraint": null, "unit_forget_bias": true, "implementation": 0, "recurrent_activation": "hard_sigmoid", "bias_initializer": {"class_name": "Zeros", "config": {}}, "recurrent_regularizer": null, "activity_regularizer": null, "go_backwards": false, "kernel_initializer": {"class_name": "VarianceScaling", "config": {"mode": "fan_in", "scale": 2.0, "seed": null, "distribution": "normal"}}, "use_bias": true, "bias_regularizer": null, "trainable": true, "name": "lstm_6", "kernel_constraint": null, "units": 16}}, {"class_name": "LSTM", "config": {"return_sequences": true, "stateful": false, "dropout": 0.0, "recurrent_initializer": {"class_name": "Orthogonal", "config": {"gain": 1.0, "seed": null}}, "activation": "tanh", "unroll": false, "bias_constraint": null, "recurrent_dropout": 0.0, "kernel_regularizer": null, "recurrent_constraint": null, "unit_forget_bias": true, "implementation": 0, "recurrent_activation": "hard_sigmoid", "bias_initializer": {"class_name": "Zeros", "config": {}}, "recurrent_regularizer": null, "activity_regularizer": null, "go_backwards": false, "kernel_initializer": {"class_name": "VarianceScaling", "config": {"mode": "fan_in", "scale": 2.0, "seed": null, "distribution": "normal"}}, "use_bias": true, "bias_regularizer": null, "trainable": true, "name": "lstm_7", "kernel_constraint": null, "units": 4}}, {"class_name": "LSTM", "config": {"return_sequences": true, "stateful": false, "dropout": 0.0, "recurrent_initializer": {"class_name": "Orthogonal", "config": {"gain": 1.0, "seed": null}}, "activation": "tanh", "unroll": false, "bias_constraint": null, "recurrent_dropout": 0.0, "kernel_regularizer": null, "recurrent_constraint": null, "unit_forget_bias": true, "implementation": 0, "recurrent_activation": "hard_sigmoid", "bias_initializer": {"class_name": "Zeros", "config": {}}, "recurrent_regularizer": null, "activity_regularizer": null, "go_backwards": false, "kernel_initializer": {"class_name": "VarianceScaling", "config": {"mode": "fan_in", "scale": 2.0, "seed": null, "distribution": "normal"}}, "use_bias": true, "bias_regularizer": null, "trainable": true, "name": "lstm_8", "kernel_constraint": null, "units": 8}}, {"class_name": "LSTM", "config": {"return_sequences": true, "stateful": false, "dropout": 0.0, "recurrent_initializer": {"class_name": "Orthogonal", "config": {"gain": 1.0, "seed": null}}, "activation": "tanh", "unroll": false, "bias_constraint": null, "recurrent_dropout": 0.0, "kernel_regularizer": null, "recurrent_constraint": null, "unit_forget_bias": true, "implementation": 0, "recurrent_activation": "hard_sigmoid", "bias_initializer": {"class_name": "Zeros", "config": {}}, "recurrent_regularizer": null, "activity_regularizer": null, "go_backwards": false, "kernel_initializer": {"class_name": "VarianceScaling", "config": {"mode": "fan_in", "scale": 2.0, "seed": null, "distribution": "normal"}}, "use_bias": true, "bias_regularizer": null, "trainable": true, "name": "lstm_9", "kernel_constraint": null, "units": 2}}, {"class_name": "Dense", "config": {"bias_initializer": {"class_name": "Zeros", "config": {}}, "kernel_regularizer": null, "activation": "relu", "kernel_initializer": {"class_name": "VarianceScaling", "config": {"mode": "fan_in", "scale": 2.0, "seed": null, "distribution": "normal"}}, "bias_constraint": null, "activity_regularizer": null, "use_bias": true, "bias_regularizer": null, "trainable": true, "name": "dense_1", "kernel_constraint": null, "units": 1}}], "backend": "tensorflow", "class_name": "Sequential"}