{"config": [{"config": {"recurrent_dropout": 0.0, "return_sequences": true, "dropout": 0.0, "batch_input_shape": [null, 1, 52], "bias_constraint": null, "implementation": 0, "bias_initializer": {"config": {}, "class_name": "Zeros"}, "kernel_initializer": {"config": {"distribution": "normal", "mode": "fan_in", "seed": null, "scale": 2.0}, "class_name": "VarianceScaling"}, "use_bias": true, "go_backwards": false, "dtype": "float32", "recurrent_regularizer": null, "unit_forget_bias": true, "recurrent_activation": "hard_sigmoid", "kernel_constraint": null, "activation": "tanh", "unroll": false, "activity_regularizer": null, "bias_regularizer": null, "units": 2, "stateful": false, "trainable": true, "name": "lstm_1", "kernel_regularizer": null, "recurrent_constraint": null, "recurrent_initializer": {"config": {"gain": 1.0, "seed": null}, "class_name": "Orthogonal"}}, "class_name": "LSTM"}, {"config": {"recurrent_dropout": 0.0, "return_sequences": true, "dropout": 0.0, "bias_constraint": null, "implementation": 0, "bias_initializer": {"config": {}, "class_name": "Zeros"}, "kernel_initializer": {"config": {"distribution": "normal", "mode": "fan_in", "seed": null, "scale": 2.0}, "class_name": "VarianceScaling"}, "stateful": false, "go_backwards": false, "recurrent_regularizer": null, "unit_forget_bias": true, "recurrent_activation": "hard_sigmoid", "kernel_constraint": null, "activation": "tanh", "unroll": false, "activity_regularizer": null, "bias_regularizer": null, "units": 8, "use_bias": true, "trainable": true, "name": "lstm_2", "kernel_regularizer": null, "recurrent_constraint": null, "recurrent_initializer": {"config": {"gain": 1.0, "seed": null}, "class_name": "Orthogonal"}}, "class_name": "LSTM"}, {"config": {"recurrent_dropout": 0.0, "return_sequences": true, "dropout": 0.0, "bias_constraint": null, "implementation": 0, "bias_initializer": {"config": {}, "class_name": "Zeros"}, "kernel_initializer": {"config": {"distribution": "normal", "mode": "fan_in", "seed": null, "scale": 2.0}, "class_name": "VarianceScaling"}, "stateful": false, "go_backwards": false, "recurrent_regularizer": null, "unit_forget_bias": true, "recurrent_activation": "hard_sigmoid", "kernel_constraint": null, "activation": "tanh", "unroll": false, "activity_regularizer": null, "bias_regularizer": null, "units": 8, "use_bias": true, "trainable": true, "name": "lstm_3", "kernel_regularizer": null, "recurrent_constraint": null, "recurrent_initializer": {"config": {"gain": 1.0, "seed": null}, "class_name": "Orthogonal"}}, "class_name": "LSTM"}, {"config": {"recurrent_dropout": 0.0, "return_sequences": true, "dropout": 0.0, "bias_constraint": null, "implementation": 0, "bias_initializer": {"config": {}, "class_name": "Zeros"}, "kernel_initializer": {"config": {"distribution": "normal", "mode": "fan_in", "seed": null, "scale": 2.0}, "class_name": "VarianceScaling"}, "stateful": false, "go_backwards": false, "recurrent_regularizer": null, "unit_forget_bias": true, "recurrent_activation": "hard_sigmoid", "kernel_constraint": null, "activation": "tanh", "unroll": false, "activity_regularizer": null, "bias_regularizer": null, "units": 8, "use_bias": true, "trainable": true, "name": "lstm_4", "kernel_regularizer": null, "recurrent_constraint": null, "recurrent_initializer": {"config": {"gain": 1.0, "seed": null}, "class_name": "Orthogonal"}}, "class_name": "LSTM"}, {"config": {"recurrent_dropout": 0.0, "return_sequences": true, "dropout": 0.0, "bias_constraint": null, "implementation": 0, "bias_initializer": {"config": {}, "class_name": "Zeros"}, "kernel_initializer": {"config": {"distribution": "normal", "mode": "fan_in", "seed": null, "scale": 2.0}, "class_name": "VarianceScaling"}, "stateful": false, "go_backwards": false, "recurrent_regularizer": null, "unit_forget_bias": true, "recurrent_activation": "hard_sigmoid", "kernel_constraint": null, "activation": "tanh", "unroll": false, "activity_regularizer": null, "bias_regularizer": null, "units": 8, "use_bias": true, "trainable": true, "name": "lstm_5", "kernel_regularizer": null, "recurrent_constraint": null, "recurrent_initializer": {"config": {"gain": 1.0, "seed": null}, "class_name": "Orthogonal"}}, "class_name": "LSTM"}, {"config": {"recurrent_dropout": 0.0, "return_sequences": true, "dropout": 0.0, "bias_constraint": null, "implementation": 0, "bias_initializer": {"config": {}, "class_name": "Zeros"}, "kernel_initializer": {"config": {"distribution": "normal", "mode": "fan_in", "seed": null, "scale": 2.0}, "class_name": "VarianceScaling"}, "stateful": false, "go_backwards": false, "recurrent_regularizer": null, "unit_forget_bias": true, "recurrent_activation": "hard_sigmoid", "kernel_constraint": null, "activation": "tanh", "unroll": false, "activity_regularizer": null, "bias_regularizer": null, "units": 8, "use_bias": true, "trainable": true, "name": "lstm_6", "kernel_regularizer": null, "recurrent_constraint": null, "recurrent_initializer": {"config": {"gain": 1.0, "seed": null}, "class_name": "Orthogonal"}}, "class_name": "LSTM"}, {"config": {"recurrent_dropout": 0.0, "return_sequences": true, "dropout": 0.0, "bias_constraint": null, "implementation": 0, "bias_initializer": {"config": {}, "class_name": "Zeros"}, "kernel_initializer": {"config": {"distribution": "normal", "mode": "fan_in", "seed": null, "scale": 2.0}, "class_name": "VarianceScaling"}, "stateful": false, "go_backwards": false, "recurrent_regularizer": null, "unit_forget_bias": true, "recurrent_activation": "hard_sigmoid", "kernel_constraint": null, "activation": "tanh", "unroll": false, "activity_regularizer": null, "bias_regularizer": null, "units": 2, "use_bias": true, "trainable": true, "name": "lstm_7", "kernel_regularizer": null, "recurrent_constraint": null, "recurrent_initializer": {"config": {"gain": 1.0, "seed": null}, "class_name": "Orthogonal"}}, "class_name": "LSTM"}, {"config": {"bias_initializer": {"config": {}, "class_name": "Zeros"}, "activity_regularizer": null, "bias_regularizer": null, "units": 1, "bias_constraint": null, "trainable": true, "kernel_initializer": {"config": {"distribution": "normal", "mode": "fan_in", "seed": null, "scale": 2.0}, "class_name": "VarianceScaling"}, "use_bias": true, "name": "dense_1", "kernel_regularizer": null, "kernel_constraint": null, "activation": "relu"}, "class_name": "Dense"}], "class_name": "Sequential", "keras_version": "2.0.2", "backend": "tensorflow"}