{"backend": "tensorflow", "keras_version": "2.0.2", "config": [{"config": {"return_sequences": true, "kernel_initializer": {"config": {"seed": null, "scale": 2.0, "distribution": "normal", "mode": "fan_in"}, "class_name": "VarianceScaling"}, "activity_regularizer": null, "recurrent_activation": "hard_sigmoid", "use_bias": true, "unit_forget_bias": true, "name": "lstm_1", "trainable": true, "bias_constraint": null, "stateful": false, "go_backwards": false, "recurrent_regularizer": null, "recurrent_initializer": {"config": {"seed": null, "gain": 1.0}, "class_name": "Orthogonal"}, "recurrent_dropout": 0.0, "bias_regularizer": null, "activation": "tanh", "dtype": "float32", "bias_initializer": {"config": {}, "class_name": "Zeros"}, "kernel_constraint": null, "implementation": 0, "kernel_regularizer": null, "batch_input_shape": [null, 1, 52], "dropout": 0.0, "units": 2, "recurrent_constraint": null, "unroll": false}, "class_name": "LSTM"}, {"config": {"return_sequences": true, "kernel_initializer": {"config": {"seed": null, "scale": 2.0, "distribution": "normal", "mode": "fan_in"}, "class_name": "VarianceScaling"}, "activity_regularizer": null, "recurrent_activation": "hard_sigmoid", "use_bias": true, "activation": "tanh", "name": "lstm_2", "recurrent_constraint": null, "bias_constraint": null, "stateful": false, "go_backwards": false, "recurrent_regularizer": null, "recurrent_initializer": {"config": {"seed": null, "gain": 1.0}, "class_name": "Orthogonal"}, "recurrent_dropout": 0.0, "bias_regularizer": null, "bias_initializer": {"config": {}, "class_name": "Zeros"}, "kernel_constraint": null, "implementation": 0, "kernel_regularizer": null, "unit_forget_bias": true, "dropout": 0.0, "units": 8, "trainable": true, "unroll": false}, "class_name": "LSTM"}, {"config": {"return_sequences": true, "kernel_initializer": {"config": {"seed": null, "scale": 2.0, "distribution": "normal", "mode": "fan_in"}, "class_name": "VarianceScaling"}, "activity_regularizer": null, "recurrent_activation": "hard_sigmoid", "use_bias": true, "activation": "tanh", "name": "lstm_3", "recurrent_constraint": null, "bias_constraint": null, "stateful": false, "go_backwards": false, "recurrent_regularizer": null, "recurrent_initializer": {"config": {"seed": null, "gain": 1.0}, "class_name": "Orthogonal"}, "recurrent_dropout": 0.0, "bias_regularizer": null, "bias_initializer": {"config": {}, "class_name": "Zeros"}, "kernel_constraint": null, "implementation": 0, "kernel_regularizer": null, "unit_forget_bias": true, "dropout": 0.0, "units": 16, "trainable": true, "unroll": false}, "class_name": "LSTM"}, {"config": {"return_sequences": true, "kernel_initializer": {"config": {"seed": null, "scale": 2.0, "distribution": "normal", "mode": "fan_in"}, "class_name": "VarianceScaling"}, "activity_regularizer": null, "recurrent_activation": "hard_sigmoid", "use_bias": true, "activation": "tanh", "name": "lstm_4", "recurrent_constraint": null, "bias_constraint": null, "stateful": false, "go_backwards": false, "recurrent_regularizer": null, "recurrent_initializer": {"config": {"seed": null, "gain": 1.0}, "class_name": "Orthogonal"}, "recurrent_dropout": 0.0, "bias_regularizer": null, "bias_initializer": {"config": {}, "class_name": "Zeros"}, "kernel_constraint": null, "implementation": 0, "kernel_regularizer": null, "unit_forget_bias": true, "dropout": 0.0, "units": 128, "trainable": true, "unroll": false}, "class_name": "LSTM"}, {"config": {"return_sequences": true, "kernel_initializer": {"config": {"seed": null, "scale": 2.0, "distribution": "normal", "mode": "fan_in"}, "class_name": "VarianceScaling"}, "activity_regularizer": null, "recurrent_activation": "hard_sigmoid", "use_bias": true, "activation": "tanh", "name": "lstm_5", "recurrent_constraint": null, "bias_constraint": null, "stateful": false, "go_backwards": false, "recurrent_regularizer": null, "recurrent_initializer": {"config": {"seed": null, "gain": 1.0}, "class_name": "Orthogonal"}, "recurrent_dropout": 0.0, "bias_regularizer": null, "bias_initializer": {"config": {}, "class_name": "Zeros"}, "kernel_constraint": null, "implementation": 0, "kernel_regularizer": null, "unit_forget_bias": true, "dropout": 0.0, "units": 64, "trainable": true, "unroll": false}, "class_name": "LSTM"}, {"config": {"return_sequences": true, "kernel_initializer": {"config": {"seed": null, "scale": 2.0, "distribution": "normal", "mode": "fan_in"}, "class_name": "VarianceScaling"}, "activity_regularizer": null, "recurrent_activation": "hard_sigmoid", "use_bias": true, "activation": "tanh", "name": "lstm_6", "recurrent_constraint": null, "bias_constraint": null, "stateful": false, "go_backwards": false, "recurrent_regularizer": null, "recurrent_initializer": {"config": {"seed": null, "gain": 1.0}, "class_name": "Orthogonal"}, "recurrent_dropout": 0.0, "bias_regularizer": null, "bias_initializer": {"config": {}, "class_name": "Zeros"}, "kernel_constraint": null, "implementation": 0, "kernel_regularizer": null, "unit_forget_bias": true, "dropout": 0.0, "units": 128, "trainable": true, "unroll": false}, "class_name": "LSTM"}, {"config": {"return_sequences": true, "kernel_initializer": {"config": {"seed": null, "scale": 2.0, "distribution": "normal", "mode": "fan_in"}, "class_name": "VarianceScaling"}, "activity_regularizer": null, "recurrent_activation": "hard_sigmoid", "use_bias": true, "activation": "tanh", "name": "lstm_7", "recurrent_constraint": null, "bias_constraint": null, "stateful": false, "go_backwards": false, "recurrent_regularizer": null, "recurrent_initializer": {"config": {"seed": null, "gain": 1.0}, "class_name": "Orthogonal"}, "recurrent_dropout": 0.0, "bias_regularizer": null, "bias_initializer": {"config": {}, "class_name": "Zeros"}, "kernel_constraint": null, "implementation": 0, "kernel_regularizer": null, "unit_forget_bias": true, "dropout": 0.0, "units": 16, "trainable": true, "unroll": false}, "class_name": "LSTM"}, {"config": {"return_sequences": true, "kernel_initializer": {"config": {"seed": null, "scale": 2.0, "distribution": "normal", "mode": "fan_in"}, "class_name": "VarianceScaling"}, "activity_regularizer": null, "recurrent_activation": "hard_sigmoid", "use_bias": true, "activation": "tanh", "name": "lstm_8", "recurrent_constraint": null, "bias_constraint": null, "stateful": false, "go_backwards": false, "recurrent_regularizer": null, "recurrent_initializer": {"config": {"seed": null, "gain": 1.0}, "class_name": "Orthogonal"}, "recurrent_dropout": 0.0, "bias_regularizer": null, "bias_initializer": {"config": {}, "class_name": "Zeros"}, "kernel_constraint": null, "implementation": 0, "kernel_regularizer": null, "unit_forget_bias": true, "dropout": 0.0, "units": 8, "trainable": true, "unroll": false}, "class_name": "LSTM"}, {"config": {"return_sequences": true, "kernel_initializer": {"config": {"seed": null, "scale": 2.0, "distribution": "normal", "mode": "fan_in"}, "class_name": "VarianceScaling"}, "activity_regularizer": null, "recurrent_activation": "hard_sigmoid", "use_bias": true, "activation": "tanh", "name": "lstm_9", "recurrent_constraint": null, "bias_constraint": null, "stateful": false, "go_backwards": false, "recurrent_regularizer": null, "recurrent_initializer": {"config": {"seed": null, "gain": 1.0}, "class_name": "Orthogonal"}, "recurrent_dropout": 0.0, "bias_regularizer": null, "bias_initializer": {"config": {}, "class_name": "Zeros"}, "kernel_constraint": null, "implementation": 0, "kernel_regularizer": null, "unit_forget_bias": true, "dropout": 0.0, "units": 2, "trainable": true, "unroll": false}, "class_name": "LSTM"}, {"config": {"kernel_initializer": {"config": {"seed": null, "scale": 2.0, "distribution": "normal", "mode": "fan_in"}, "class_name": "VarianceScaling"}, "activity_regularizer": null, "kernel_regularizer": null, "use_bias": true, "activation": "relu", "name": "dense_1", "bias_constraint": null, "units": 1, "bias_regularizer": null, "trainable": true, "bias_initializer": {"config": {}, "class_name": "Zeros"}, "kernel_constraint": null}, "class_name": "Dense"}], "class_name": "Sequential"}