{"config": [{"config": {"name": "lstm_1", "units": 16, "recurrent_constraint": null, "batch_input_shape": [null, 1, 52], "unit_forget_bias": true, "recurrent_regularizer": null, "activity_regularizer": null, "kernel_regularizer": null, "return_sequences": true, "recurrent_initializer": {"config": {"gain": 1.0, "seed": null}, "class_name": "Orthogonal"}, "kernel_initializer": {"config": {"scale": 2.0, "mode": "fan_in", "distribution": "normal", "seed": null}, "class_name": "VarianceScaling"}, "implementation": 0, "recurrent_dropout": 0.0, "use_bias": true, "stateful": false, "dtype": "float32", "bias_initializer": {"config": {}, "class_name": "Zeros"}, "dropout": 0.0, "recurrent_activation": "hard_sigmoid", "trainable": true, "bias_constraint": null, "activation": "tanh", "unroll": false, "go_backwards": false, "kernel_constraint": null, "bias_regularizer": null}, "class_name": "LSTM"}, {"config": {"name": "lstm_2", "units": 16, "use_bias": true, "unit_forget_bias": true, "recurrent_regularizer": null, "activity_regularizer": null, "kernel_regularizer": null, "return_sequences": true, "recurrent_initializer": {"config": {"gain": 1.0, "seed": null}, "class_name": "Orthogonal"}, "kernel_initializer": {"config": {"scale": 2.0, "mode": "fan_in", "distribution": "normal", "seed": null}, "class_name": "VarianceScaling"}, "implementation": 0, "recurrent_dropout": 0.0, "kernel_constraint": null, "stateful": false, "bias_initializer": {"config": {}, "class_name": "Zeros"}, "recurrent_constraint": null, "recurrent_activation": "hard_sigmoid", "trainable": true, "bias_constraint": null, "activation": "tanh", "unroll": false, "go_backwards": false, "dropout": 0.0, "bias_regularizer": null}, "class_name": "LSTM"}, {"config": {"name": "lstm_3", "units": 16, "use_bias": true, "unit_forget_bias": true, "recurrent_regularizer": null, "activity_regularizer": null, "kernel_regularizer": null, "return_sequences": true, "recurrent_initializer": {"config": {"gain": 1.0, "seed": null}, "class_name": "Orthogonal"}, "kernel_initializer": {"config": {"scale": 2.0, "mode": "fan_in", "distribution": "normal", "seed": null}, "class_name": "VarianceScaling"}, "implementation": 0, "recurrent_dropout": 0.0, "kernel_constraint": null, "stateful": false, "bias_initializer": {"config": {}, "class_name": "Zeros"}, "recurrent_constraint": null, "recurrent_activation": "hard_sigmoid", "trainable": true, "bias_constraint": null, "activation": "tanh", "unroll": false, "go_backwards": false, "dropout": 0.0, "bias_regularizer": null}, "class_name": "LSTM"}, {"config": {"name": "lstm_4", "units": 16, "use_bias": true, "unit_forget_bias": true, "recurrent_regularizer": null, "activity_regularizer": null, "kernel_regularizer": null, "return_sequences": true, "recurrent_initializer": {"config": {"gain": 1.0, "seed": null}, "class_name": "Orthogonal"}, "kernel_initializer": {"config": {"scale": 2.0, "mode": "fan_in", "distribution": "normal", "seed": null}, "class_name": "VarianceScaling"}, "implementation": 0, "recurrent_dropout": 0.0, "kernel_constraint": null, "stateful": false, "bias_initializer": {"config": {}, "class_name": "Zeros"}, "recurrent_constraint": null, "recurrent_activation": "hard_sigmoid", "trainable": true, "bias_constraint": null, "activation": "tanh", "unroll": false, "go_backwards": false, "dropout": 0.0, "bias_regularizer": null}, "class_name": "LSTM"}, {"config": {"name": "lstm_5", "units": 16, "use_bias": true, "unit_forget_bias": true, "recurrent_regularizer": null, "activity_regularizer": null, "kernel_regularizer": null, "return_sequences": true, "recurrent_initializer": {"config": {"gain": 1.0, "seed": null}, "class_name": "Orthogonal"}, "kernel_initializer": {"config": {"scale": 2.0, "mode": "fan_in", "distribution": "normal", "seed": null}, "class_name": "VarianceScaling"}, "implementation": 0, "recurrent_dropout": 0.0, "kernel_constraint": null, "stateful": false, "bias_initializer": {"config": {}, "class_name": "Zeros"}, "recurrent_constraint": null, "recurrent_activation": "hard_sigmoid", "trainable": true, "bias_constraint": null, "activation": "tanh", "unroll": false, "go_backwards": false, "dropout": 0.0, "bias_regularizer": null}, "class_name": "LSTM"}, {"config": {"name": "lstm_6", "units": 16, "use_bias": true, "unit_forget_bias": true, "recurrent_regularizer": null, "activity_regularizer": null, "kernel_regularizer": null, "return_sequences": true, "recurrent_initializer": {"config": {"gain": 1.0, "seed": null}, "class_name": "Orthogonal"}, "kernel_initializer": {"config": {"scale": 2.0, "mode": "fan_in", "distribution": "normal", "seed": null}, "class_name": "VarianceScaling"}, "implementation": 0, "recurrent_dropout": 0.0, "kernel_constraint": null, "stateful": false, "bias_initializer": {"config": {}, "class_name": "Zeros"}, "recurrent_constraint": null, "recurrent_activation": "hard_sigmoid", "trainable": true, "bias_constraint": null, "activation": "tanh", "unroll": false, "go_backwards": false, "dropout": 0.0, "bias_regularizer": null}, "class_name": "LSTM"}, {"config": {"name": "lstm_7", "units": 16, "use_bias": true, "unit_forget_bias": true, "recurrent_regularizer": null, "activity_regularizer": null, "kernel_regularizer": null, "return_sequences": true, "recurrent_initializer": {"config": {"gain": 1.0, "seed": null}, "class_name": "Orthogonal"}, "kernel_initializer": {"config": {"scale": 2.0, "mode": "fan_in", "distribution": "normal", "seed": null}, "class_name": "VarianceScaling"}, "implementation": 0, "recurrent_dropout": 0.0, "kernel_constraint": null, "stateful": false, "bias_initializer": {"config": {}, "class_name": "Zeros"}, "recurrent_constraint": null, "recurrent_activation": "hard_sigmoid", "trainable": true, "bias_constraint": null, "activation": "tanh", "unroll": false, "go_backwards": false, "dropout": 0.0, "bias_regularizer": null}, "class_name": "LSTM"}, {"config": {"name": "dense_1", "units": 1, "use_bias": true, "bias_initializer": {"config": {}, "class_name": "Zeros"}, "activity_regularizer": null, "kernel_regularizer": null, "trainable": true, "bias_constraint": null, "kernel_initializer": {"config": {"scale": 2.0, "mode": "fan_in", "distribution": "normal", "seed": null}, "class_name": "VarianceScaling"}, "activation": "relu", "bias_regularizer": null, "kernel_constraint": null}, "class_name": "Dense"}], "keras_version": "2.0.2", "class_name": "Sequential", "backend": "tensorflow"}