{"config": [{"config": {"implementation": 0, "activation": "tanh", "kernel_regularizer": null, "recurrent_initializer": {"config": {"seed": null, "gain": 1.0}, "class_name": "Orthogonal"}, "unroll": false, "activity_regularizer": null, "unit_forget_bias": true, "recurrent_regularizer": null, "return_sequences": true, "kernel_constraint": null, "use_bias": true, "stateful": false, "dtype": "float32", "go_backwards": false, "recurrent_dropout": 0.0, "bias_constraint": null, "dropout": 0.0, "trainable": true, "name": "lstm_1", "bias_initializer": {"config": {}, "class_name": "Zeros"}, "batch_input_shape": [null, 1, 48], "recurrent_constraint": null, "kernel_initializer": {"config": {"distribution": "normal", "seed": null, "mode": "fan_in", "scale": 2.0}, "class_name": "VarianceScaling"}, "units": 2, "recurrent_activation": "hard_sigmoid", "bias_regularizer": null}, "class_name": "LSTM"}, {"config": {"implementation": 0, "activation": "tanh", "kernel_regularizer": null, "recurrent_initializer": {"config": {"seed": null, "gain": 1.0}, "class_name": "Orthogonal"}, "unroll": false, "activity_regularizer": null, "unit_forget_bias": true, "recurrent_regularizer": null, "return_sequences": true, "kernel_constraint": null, "use_bias": true, "stateful": false, "go_backwards": false, "recurrent_dropout": 0.0, "bias_constraint": null, "dropout": 0.0, "trainable": true, "name": "lstm_2", "bias_initializer": {"config": {}, "class_name": "Zeros"}, "recurrent_constraint": null, "kernel_initializer": {"config": {"distribution": "normal", "seed": null, "mode": "fan_in", "scale": 2.0}, "class_name": "VarianceScaling"}, "units": 4, "recurrent_activation": "hard_sigmoid", "bias_regularizer": null}, "class_name": "LSTM"}, {"config": {"implementation": 0, "activation": "tanh", "kernel_regularizer": null, "recurrent_initializer": {"config": {"seed": null, "gain": 1.0}, "class_name": "Orthogonal"}, "unroll": false, "activity_regularizer": null, "unit_forget_bias": true, "recurrent_regularizer": null, "return_sequences": true, "kernel_constraint": null, "use_bias": true, "stateful": false, "go_backwards": false, "recurrent_dropout": 0.0, "bias_constraint": null, "dropout": 0.0, "trainable": true, "name": "lstm_3", "bias_initializer": {"config": {}, "class_name": "Zeros"}, "recurrent_constraint": null, "kernel_initializer": {"config": {"distribution": "normal", "seed": null, "mode": "fan_in", "scale": 2.0}, "class_name": "VarianceScaling"}, "units": 8, "recurrent_activation": "hard_sigmoid", "bias_regularizer": null}, "class_name": "LSTM"}, {"config": {"implementation": 0, "activation": "tanh", "kernel_regularizer": null, "recurrent_initializer": {"config": {"seed": null, "gain": 1.0}, "class_name": "Orthogonal"}, "unroll": false, "activity_regularizer": null, "unit_forget_bias": true, "recurrent_regularizer": null, "return_sequences": true, "kernel_constraint": null, "use_bias": true, "stateful": false, "go_backwards": false, "recurrent_dropout": 0.0, "bias_constraint": null, "dropout": 0.0, "trainable": true, "name": "lstm_4", "bias_initializer": {"config": {}, "class_name": "Zeros"}, "recurrent_constraint": null, "kernel_initializer": {"config": {"distribution": "normal", "seed": null, "mode": "fan_in", "scale": 2.0}, "class_name": "VarianceScaling"}, "units": 2, "recurrent_activation": "hard_sigmoid", "bias_regularizer": null}, "class_name": "LSTM"}, {"config": {"implementation": 0, "activation": "tanh", "kernel_regularizer": null, "recurrent_initializer": {"config": {"seed": null, "gain": 1.0}, "class_name": "Orthogonal"}, "unroll": false, "activity_regularizer": null, "unit_forget_bias": true, "recurrent_regularizer": null, "return_sequences": true, "kernel_constraint": null, "use_bias": true, "stateful": false, "go_backwards": false, "recurrent_dropout": 0.0, "bias_constraint": null, "dropout": 0.0, "trainable": true, "name": "lstm_5", "bias_initializer": {"config": {}, "class_name": "Zeros"}, "recurrent_constraint": null, "kernel_initializer": {"config": {"distribution": "normal", "seed": null, "mode": "fan_in", "scale": 2.0}, "class_name": "VarianceScaling"}, "units": 8, "recurrent_activation": "hard_sigmoid", "bias_regularizer": null}, "class_name": "LSTM"}, {"config": {"implementation": 0, "activation": "tanh", "kernel_regularizer": null, "recurrent_initializer": {"config": {"seed": null, "gain": 1.0}, "class_name": "Orthogonal"}, "unroll": false, "activity_regularizer": null, "unit_forget_bias": true, "recurrent_regularizer": null, "return_sequences": true, "kernel_constraint": null, "use_bias": true, "stateful": false, "go_backwards": false, "recurrent_dropout": 0.0, "bias_constraint": null, "dropout": 0.0, "trainable": true, "name": "lstm_6", "bias_initializer": {"config": {}, "class_name": "Zeros"}, "recurrent_constraint": null, "kernel_initializer": {"config": {"distribution": "normal", "seed": null, "mode": "fan_in", "scale": 2.0}, "class_name": "VarianceScaling"}, "units": 4, "recurrent_activation": "hard_sigmoid", "bias_regularizer": null}, "class_name": "LSTM"}, {"config": {"implementation": 0, "activation": "tanh", "kernel_regularizer": null, "recurrent_initializer": {"config": {"seed": null, "gain": 1.0}, "class_name": "Orthogonal"}, "unroll": false, "activity_regularizer": null, "unit_forget_bias": true, "recurrent_regularizer": null, "return_sequences": true, "kernel_constraint": null, "use_bias": true, "stateful": false, "go_backwards": false, "recurrent_dropout": 0.0, "bias_constraint": null, "dropout": 0.0, "trainable": true, "name": "lstm_7", "bias_initializer": {"config": {}, "class_name": "Zeros"}, "recurrent_constraint": null, "kernel_initializer": {"config": {"distribution": "normal", "seed": null, "mode": "fan_in", "scale": 2.0}, "class_name": "VarianceScaling"}, "units": 2, "recurrent_activation": "hard_sigmoid", "bias_regularizer": null}, "class_name": "LSTM"}, {"config": {"activation": "relu", "kernel_regularizer": null, "bias_regularizer": null, "name": "dense_1", "activity_regularizer": null, "bias_initializer": {"config": {}, "class_name": "Zeros"}, "bias_constraint": null, "use_bias": true, "kernel_initializer": {"config": {"distribution": "normal", "seed": null, "mode": "fan_in", "scale": 2.0}, "class_name": "VarianceScaling"}, "units": 1, "trainable": true, "kernel_constraint": null}, "class_name": "Dense"}], "backend": "tensorflow", "class_name": "Sequential", "keras_version": "2.0.2"}