{"keras_version": "2.0.2", "config": [{"config": {"name": "lstm_1", "trainable": true, "dropout": 0.0, "dtype": "float32", "return_sequences": true, "kernel_initializer": {"config": {"mode": "fan_avg", "seed": null, "distribution": "uniform", "scale": 1.0}, "class_name": "VarianceScaling"}, "recurrent_constraint": null, "unroll": false, "implementation": 0, "activity_regularizer": null, "bias_initializer": {"config": {}, "class_name": "Zeros"}, "bias_regularizer": null, "go_backwards": false, "recurrent_regularizer": null, "recurrent_activation": "hard_sigmoid", "recurrent_initializer": {"config": {"seed": null, "gain": 1.0}, "class_name": "Orthogonal"}, "kernel_regularizer": null, "units": 2, "recurrent_dropout": 0.0, "use_bias": true, "stateful": false, "bias_constraint": null, "activation": "tanh", "batch_input_shape": [null, 1, 48], "unit_forget_bias": true, "kernel_constraint": null}, "class_name": "LSTM"}, {"config": {"name": "lstm_2", "trainable": true, "dropout": 0.0, "return_sequences": true, "kernel_initializer": {"config": {"mode": "fan_avg", "seed": null, "distribution": "uniform", "scale": 1.0}, "class_name": "VarianceScaling"}, "recurrent_constraint": null, "unroll": false, "implementation": 0, "activity_regularizer": null, "bias_regularizer": null, "go_backwards": false, "recurrent_regularizer": null, "bias_initializer": {"config": {}, "class_name": "Zeros"}, "recurrent_initializer": {"config": {"seed": null, "gain": 1.0}, "class_name": "Orthogonal"}, "recurrent_activation": "hard_sigmoid", "kernel_regularizer": null, "units": 8, "recurrent_dropout": 0.0, "use_bias": true, "stateful": false, "bias_constraint": null, "activation": "tanh", "unit_forget_bias": true, "kernel_constraint": null}, "class_name": "LSTM"}, {"config": {"name": "lstm_3", "trainable": true, "dropout": 0.0, "return_sequences": true, "kernel_initializer": {"config": {"mode": "fan_avg", "seed": null, "distribution": "uniform", "scale": 1.0}, "class_name": "VarianceScaling"}, "recurrent_constraint": null, "unroll": false, "implementation": 0, "activity_regularizer": null, "bias_regularizer": null, "go_backwards": false, "recurrent_regularizer": null, "bias_initializer": {"config": {}, "class_name": "Zeros"}, "recurrent_initializer": {"config": {"seed": null, "gain": 1.0}, "class_name": "Orthogonal"}, "recurrent_activation": "hard_sigmoid", "kernel_regularizer": null, "units": 16, "recurrent_dropout": 0.0, "use_bias": true, "stateful": false, "bias_constraint": null, "activation": "tanh", "unit_forget_bias": true, "kernel_constraint": null}, "class_name": "LSTM"}, {"config": {"name": "lstm_4", "trainable": true, "dropout": 0.0, "return_sequences": true, "kernel_initializer": {"config": {"mode": "fan_avg", "seed": null, "distribution": "uniform", "scale": 1.0}, "class_name": "VarianceScaling"}, "recurrent_constraint": null, "unroll": false, "implementation": 0, "activity_regularizer": null, "bias_regularizer": null, "go_backwards": false, "recurrent_regularizer": null, "bias_initializer": {"config": {}, "class_name": "Zeros"}, "recurrent_initializer": {"config": {"seed": null, "gain": 1.0}, "class_name": "Orthogonal"}, "recurrent_activation": "hard_sigmoid", "kernel_regularizer": null, "units": 128, "recurrent_dropout": 0.0, "use_bias": true, "stateful": false, "bias_constraint": null, "activation": "tanh", "unit_forget_bias": true, "kernel_constraint": null}, "class_name": "LSTM"}, {"config": {"name": "lstm_5", "trainable": true, "dropout": 0.0, "return_sequences": true, "kernel_initializer": {"config": {"mode": "fan_avg", "seed": null, "distribution": "uniform", "scale": 1.0}, "class_name": "VarianceScaling"}, "recurrent_constraint": null, "unroll": false, "implementation": 0, "activity_regularizer": null, "bias_regularizer": null, "go_backwards": false, "recurrent_regularizer": null, "bias_initializer": {"config": {}, "class_name": "Zeros"}, "recurrent_initializer": {"config": {"seed": null, "gain": 1.0}, "class_name": "Orthogonal"}, "recurrent_activation": "hard_sigmoid", "kernel_regularizer": null, "units": 16, "recurrent_dropout": 0.0, "use_bias": true, "stateful": false, "bias_constraint": null, "activation": "tanh", "unit_forget_bias": true, "kernel_constraint": null}, "class_name": "LSTM"}, {"config": {"name": "lstm_6", "trainable": true, "dropout": 0.0, "return_sequences": true, "kernel_initializer": {"config": {"mode": "fan_avg", "seed": null, "distribution": "uniform", "scale": 1.0}, "class_name": "VarianceScaling"}, "recurrent_constraint": null, "unroll": false, "implementation": 0, "activity_regularizer": null, "bias_regularizer": null, "go_backwards": false, "recurrent_regularizer": null, "bias_initializer": {"config": {}, "class_name": "Zeros"}, "recurrent_initializer": {"config": {"seed": null, "gain": 1.0}, "class_name": "Orthogonal"}, "recurrent_activation": "hard_sigmoid", "kernel_regularizer": null, "units": 8, "recurrent_dropout": 0.0, "use_bias": true, "stateful": false, "bias_constraint": null, "activation": "tanh", "unit_forget_bias": true, "kernel_constraint": null}, "class_name": "LSTM"}, {"config": {"name": "lstm_7", "trainable": true, "dropout": 0.0, "return_sequences": true, "kernel_initializer": {"config": {"mode": "fan_avg", "seed": null, "distribution": "uniform", "scale": 1.0}, "class_name": "VarianceScaling"}, "recurrent_constraint": null, "unroll": false, "implementation": 0, "activity_regularizer": null, "bias_regularizer": null, "go_backwards": false, "recurrent_regularizer": null, "bias_initializer": {"config": {}, "class_name": "Zeros"}, "recurrent_initializer": {"config": {"seed": null, "gain": 1.0}, "class_name": "Orthogonal"}, "recurrent_activation": "hard_sigmoid", "kernel_regularizer": null, "units": 2, "recurrent_dropout": 0.0, "use_bias": true, "stateful": false, "bias_constraint": null, "activation": "tanh", "unit_forget_bias": true, "kernel_constraint": null}, "class_name": "LSTM"}, {"config": {"name": "dense_1", "trainable": true, "bias_initializer": {"config": {}, "class_name": "Zeros"}, "kernel_regularizer": null, "units": 1, "kernel_initializer": {"config": {"mode": "fan_avg", "seed": null, "distribution": "uniform", "scale": 1.0}, "class_name": "VarianceScaling"}, "bias_constraint": null, "activation": "relu", "use_bias": true, "kernel_constraint": null, "activity_regularizer": null, "bias_regularizer": null}, "class_name": "Dense"}], "backend": "tensorflow", "class_name": "Sequential"}