{"backend": "tensorflow", "config": [{"config": {"return_sequences": true, "units": 2, "recurrent_constraint": null, "stateful": false, "kernel_regularizer": null, "use_bias": true, "activity_regularizer": null, "name": "lstm_1", "recurrent_regularizer": null, "kernel_initializer": {"config": {"scale": 2.0, "distribution": "normal", "mode": "fan_in", "seed": null}, "class_name": "VarianceScaling"}, "dropout": 0.0, "recurrent_activation": "hard_sigmoid", "dtype": "float32", "unit_forget_bias": true, "bias_regularizer": null, "trainable": true, "recurrent_initializer": {"config": {"seed": null, "gain": 1.0}, "class_name": "Orthogonal"}, "kernel_constraint": null, "bias_constraint": null, "implementation": 0, "unroll": false, "batch_input_shape": [null, 1, 52], "recurrent_dropout": 0.0, "go_backwards": false, "bias_initializer": {"config": {}, "class_name": "Zeros"}, "activation": "tanh"}, "class_name": "LSTM"}, {"config": {"return_sequences": true, "units": 8, "recurrent_constraint": null, "stateful": false, "kernel_regularizer": null, "use_bias": true, "activity_regularizer": null, "name": "lstm_2", "recurrent_regularizer": null, "kernel_initializer": {"config": {"scale": 2.0, "distribution": "normal", "mode": "fan_in", "seed": null}, "class_name": "VarianceScaling"}, "dropout": 0.0, "recurrent_activation": "hard_sigmoid", "unit_forget_bias": true, "bias_regularizer": null, "trainable": true, "recurrent_initializer": {"config": {"seed": null, "gain": 1.0}, "class_name": "Orthogonal"}, "kernel_constraint": null, "bias_constraint": null, "implementation": 0, "unroll": false, "recurrent_dropout": 0.0, "go_backwards": false, "bias_initializer": {"config": {}, "class_name": "Zeros"}, "activation": "tanh"}, "class_name": "LSTM"}, {"config": {"return_sequences": true, "units": 16, "recurrent_constraint": null, "stateful": false, "kernel_regularizer": null, "use_bias": true, "activity_regularizer": null, "name": "lstm_3", "recurrent_regularizer": null, "kernel_initializer": {"config": {"scale": 2.0, "distribution": "normal", "mode": "fan_in", "seed": null}, "class_name": "VarianceScaling"}, "dropout": 0.0, "recurrent_activation": "hard_sigmoid", "unit_forget_bias": true, "bias_regularizer": null, "trainable": true, "recurrent_initializer": {"config": {"seed": null, "gain": 1.0}, "class_name": "Orthogonal"}, "kernel_constraint": null, "bias_constraint": null, "implementation": 0, "unroll": false, "recurrent_dropout": 0.0, "go_backwards": false, "bias_initializer": {"config": {}, "class_name": "Zeros"}, "activation": "tanh"}, "class_name": "LSTM"}, {"config": {"return_sequences": true, "units": 16, "recurrent_constraint": null, "stateful": false, "kernel_regularizer": null, "use_bias": true, "activity_regularizer": null, "name": "lstm_4", "recurrent_regularizer": null, "kernel_initializer": {"config": {"scale": 2.0, "distribution": "normal", "mode": "fan_in", "seed": null}, "class_name": "VarianceScaling"}, "dropout": 0.0, "recurrent_activation": "hard_sigmoid", "unit_forget_bias": true, "bias_regularizer": null, "trainable": true, "recurrent_initializer": {"config": {"seed": null, "gain": 1.0}, "class_name": "Orthogonal"}, "kernel_constraint": null, "bias_constraint": null, "implementation": 0, "unroll": false, "recurrent_dropout": 0.0, "go_backwards": false, "bias_initializer": {"config": {}, "class_name": "Zeros"}, "activation": "tanh"}, "class_name": "LSTM"}, {"config": {"return_sequences": true, "units": 16, "recurrent_constraint": null, "stateful": false, "kernel_regularizer": null, "use_bias": true, "activity_regularizer": null, "name": "lstm_5", "recurrent_regularizer": null, "kernel_initializer": {"config": {"scale": 2.0, "distribution": "normal", "mode": "fan_in", "seed": null}, "class_name": "VarianceScaling"}, "dropout": 0.0, "recurrent_activation": "hard_sigmoid", "unit_forget_bias": true, "bias_regularizer": null, "trainable": true, "recurrent_initializer": {"config": {"seed": null, "gain": 1.0}, "class_name": "Orthogonal"}, "kernel_constraint": null, "bias_constraint": null, "implementation": 0, "unroll": false, "recurrent_dropout": 0.0, "go_backwards": false, "bias_initializer": {"config": {}, "class_name": "Zeros"}, "activation": "tanh"}, "class_name": "LSTM"}, {"config": {"return_sequences": true, "units": 8, "recurrent_constraint": null, "stateful": false, "kernel_regularizer": null, "use_bias": true, "activity_regularizer": null, "name": "lstm_6", "recurrent_regularizer": null, "kernel_initializer": {"config": {"scale": 2.0, "distribution": "normal", "mode": "fan_in", "seed": null}, "class_name": "VarianceScaling"}, "dropout": 0.0, "recurrent_activation": "hard_sigmoid", "unit_forget_bias": true, "bias_regularizer": null, "trainable": true, "recurrent_initializer": {"config": {"seed": null, "gain": 1.0}, "class_name": "Orthogonal"}, "kernel_constraint": null, "bias_constraint": null, "implementation": 0, "unroll": false, "recurrent_dropout": 0.0, "go_backwards": false, "bias_initializer": {"config": {}, "class_name": "Zeros"}, "activation": "tanh"}, "class_name": "LSTM"}, {"config": {"return_sequences": true, "units": 2, "recurrent_constraint": null, "stateful": false, "kernel_regularizer": null, "use_bias": true, "activity_regularizer": null, "name": "lstm_7", "recurrent_regularizer": null, "kernel_initializer": {"config": {"scale": 2.0, "distribution": "normal", "mode": "fan_in", "seed": null}, "class_name": "VarianceScaling"}, "dropout": 0.0, "recurrent_activation": "hard_sigmoid", "unit_forget_bias": true, "bias_regularizer": null, "trainable": true, "recurrent_initializer": {"config": {"seed": null, "gain": 1.0}, "class_name": "Orthogonal"}, "kernel_constraint": null, "bias_constraint": null, "implementation": 0, "unroll": false, "recurrent_dropout": 0.0, "go_backwards": false, "bias_initializer": {"config": {}, "class_name": "Zeros"}, "activation": "tanh"}, "class_name": "LSTM"}, {"config": {"units": 1, "use_bias": true, "kernel_constraint": null, "bias_regularizer": null, "trainable": true, "kernel_regularizer": null, "bias_constraint": null, "activity_regularizer": null, "name": "dense_1", "kernel_initializer": {"config": {"scale": 2.0, "distribution": "normal", "mode": "fan_in", "seed": null}, "class_name": "VarianceScaling"}, "bias_initializer": {"config": {}, "class_name": "Zeros"}, "activation": "relu"}, "class_name": "Dense"}], "keras_version": "2.0.2", "class_name": "Sequential"}