{"config": [{"config": {"use_bias": true, "kernel_constraint": null, "dtype": "float32", "name": "lstm_1", "unit_forget_bias": true, "trainable": true, "return_sequences": true, "bias_regularizer": null, "batch_input_shape": [null, 1, 48], "kernel_initializer": {"config": {"mode": "fan_in", "scale": 2.0, "seed": null, "distribution": "normal"}, "class_name": "VarianceScaling"}, "bias_constraint": null, "recurrent_dropout": 0.0, "units": 2, "dropout": 0.0, "go_backwards": false, "unroll": false, "recurrent_initializer": {"config": {"seed": null, "gain": 1.0}, "class_name": "Orthogonal"}, "kernel_regularizer": null, "recurrent_constraint": null, "stateful": false, "activation": "tanh", "implementation": 0, "bias_initializer": {"config": {}, "class_name": "Zeros"}, "recurrent_activation": "hard_sigmoid", "activity_regularizer": null, "recurrent_regularizer": null}, "class_name": "LSTM"}, {"config": {"use_bias": true, "kernel_constraint": null, "name": "lstm_2", "unit_forget_bias": true, "trainable": true, "return_sequences": true, "bias_regularizer": null, "kernel_regularizer": null, "kernel_initializer": {"config": {"mode": "fan_in", "scale": 2.0, "seed": null, "distribution": "normal"}, "class_name": "VarianceScaling"}, "bias_constraint": null, "go_backwards": false, "units": 2, "dropout": 0.0, "recurrent_dropout": 0.0, "unroll": false, "recurrent_initializer": {"config": {"seed": null, "gain": 1.0}, "class_name": "Orthogonal"}, "recurrent_constraint": null, "stateful": false, "activation": "tanh", "implementation": 0, "bias_initializer": {"config": {}, "class_name": "Zeros"}, "recurrent_activation": "hard_sigmoid", "activity_regularizer": null, "recurrent_regularizer": null}, "class_name": "LSTM"}, {"config": {"use_bias": true, "kernel_constraint": null, "name": "lstm_3", "unit_forget_bias": true, "trainable": true, "return_sequences": true, "bias_regularizer": null, "kernel_regularizer": null, "kernel_initializer": {"config": {"mode": "fan_in", "scale": 2.0, "seed": null, "distribution": "normal"}, "class_name": "VarianceScaling"}, "bias_constraint": null, "go_backwards": false, "units": 2, "dropout": 0.0, "recurrent_dropout": 0.0, "unroll": false, "recurrent_initializer": {"config": {"seed": null, "gain": 1.0}, "class_name": "Orthogonal"}, "recurrent_constraint": null, "stateful": false, "activation": "tanh", "implementation": 0, "bias_initializer": {"config": {}, "class_name": "Zeros"}, "recurrent_activation": "hard_sigmoid", "activity_regularizer": null, "recurrent_regularizer": null}, "class_name": "LSTM"}, {"config": {"use_bias": true, "kernel_constraint": null, "name": "lstm_4", "unit_forget_bias": true, "trainable": true, "return_sequences": true, "bias_regularizer": null, "kernel_regularizer": null, "kernel_initializer": {"config": {"mode": "fan_in", "scale": 2.0, "seed": null, "distribution": "normal"}, "class_name": "VarianceScaling"}, "bias_constraint": null, "go_backwards": false, "units": 2, "dropout": 0.0, "recurrent_dropout": 0.0, "unroll": false, "recurrent_initializer": {"config": {"seed": null, "gain": 1.0}, "class_name": "Orthogonal"}, "recurrent_constraint": null, "stateful": false, "activation": "tanh", "implementation": 0, "bias_initializer": {"config": {}, "class_name": "Zeros"}, "recurrent_activation": "hard_sigmoid", "activity_regularizer": null, "recurrent_regularizer": null}, "class_name": "LSTM"}, {"config": {"use_bias": true, "kernel_constraint": null, "name": "lstm_5", "unit_forget_bias": true, "trainable": true, "return_sequences": true, "bias_regularizer": null, "kernel_regularizer": null, "kernel_initializer": {"config": {"mode": "fan_in", "scale": 2.0, "seed": null, "distribution": "normal"}, "class_name": "VarianceScaling"}, "bias_constraint": null, "go_backwards": false, "units": 2, "dropout": 0.0, "recurrent_dropout": 0.0, "unroll": false, "recurrent_initializer": {"config": {"seed": null, "gain": 1.0}, "class_name": "Orthogonal"}, "recurrent_constraint": null, "stateful": false, "activation": "tanh", "implementation": 0, "bias_initializer": {"config": {}, "class_name": "Zeros"}, "recurrent_activation": "hard_sigmoid", "activity_regularizer": null, "recurrent_regularizer": null}, "class_name": "LSTM"}, {"config": {"use_bias": true, "kernel_constraint": null, "name": "lstm_6", "unit_forget_bias": true, "trainable": true, "return_sequences": true, "bias_regularizer": null, "kernel_regularizer": null, "kernel_initializer": {"config": {"mode": "fan_in", "scale": 2.0, "seed": null, "distribution": "normal"}, "class_name": "VarianceScaling"}, "bias_constraint": null, "go_backwards": false, "units": 2, "dropout": 0.0, "recurrent_dropout": 0.0, "unroll": false, "recurrent_initializer": {"config": {"seed": null, "gain": 1.0}, "class_name": "Orthogonal"}, "recurrent_constraint": null, "stateful": false, "activation": "tanh", "implementation": 0, "bias_initializer": {"config": {}, "class_name": "Zeros"}, "recurrent_activation": "hard_sigmoid", "activity_regularizer": null, "recurrent_regularizer": null}, "class_name": "LSTM"}, {"config": {"use_bias": true, "kernel_constraint": null, "name": "lstm_7", "unit_forget_bias": true, "trainable": true, "return_sequences": true, "bias_regularizer": null, "kernel_regularizer": null, "kernel_initializer": {"config": {"mode": "fan_in", "scale": 2.0, "seed": null, "distribution": "normal"}, "class_name": "VarianceScaling"}, "bias_constraint": null, "go_backwards": false, "units": 2, "dropout": 0.0, "recurrent_dropout": 0.0, "unroll": false, "recurrent_initializer": {"config": {"seed": null, "gain": 1.0}, "class_name": "Orthogonal"}, "recurrent_constraint": null, "stateful": false, "activation": "tanh", "implementation": 0, "bias_initializer": {"config": {}, "class_name": "Zeros"}, "recurrent_activation": "hard_sigmoid", "activity_regularizer": null, "recurrent_regularizer": null}, "class_name": "LSTM"}, {"config": {"use_bias": true, "kernel_constraint": null, "name": "dense_1", "activity_regularizer": null, "bias_initializer": {"config": {}, "class_name": "Zeros"}, "kernel_regularizer": null, "bias_regularizer": null, "activation": "relu", "kernel_initializer": {"config": {"mode": "fan_in", "scale": 2.0, "seed": null, "distribution": "normal"}, "class_name": "VarianceScaling"}, "units": 1, "trainable": true, "bias_constraint": null}, "class_name": "Dense"}], "keras_version": "2.0.2", "class_name": "Sequential", "backend": "tensorflow"}