{"backend": "tensorflow", "config": [{"config": {"kernel_constraint": null, "bias_initializer": {"config": {}, "class_name": "Zeros"}, "unit_forget_bias": true, "recurrent_activation": "hard_sigmoid", "recurrent_initializer": {"config": {"gain": 1.0, "seed": null}, "class_name": "Orthogonal"}, "go_backwards": false, "recurrent_regularizer": null, "unroll": false, "kernel_regularizer": null, "bias_regularizer": null, "dropout": 0.0, "dtype": "float32", "trainable": true, "activity_regularizer": null, "recurrent_dropout": 0.0, "stateful": false, "implementation": 0, "recurrent_constraint": null, "activation": "tanh", "bias_constraint": null, "batch_input_shape": [null, 1, 52], "return_sequences": true, "use_bias": true, "units": 64, "name": "lstm_1", "kernel_initializer": {"config": {"mode": "fan_in", "distribution": "normal", "scale": 2.0, "seed": null}, "class_name": "VarianceScaling"}}, "class_name": "LSTM"}, {"config": {"kernel_constraint": null, "bias_initializer": {"config": {}, "class_name": "Zeros"}, "unit_forget_bias": true, "recurrent_activation": "hard_sigmoid", "recurrent_initializer": {"config": {"gain": 1.0, "seed": null}, "class_name": "Orthogonal"}, "go_backwards": false, "activation": "tanh", "unroll": false, "use_bias": true, "bias_constraint": null, "dropout": 0.0, "trainable": true, "activity_regularizer": null, "recurrent_dropout": 0.0, "stateful": false, "implementation": 0, "recurrent_constraint": null, "bias_regularizer": null, "recurrent_regularizer": null, "return_sequences": true, "kernel_regularizer": null, "units": 16, "name": "lstm_2", "kernel_initializer": {"config": {"mode": "fan_in", "distribution": "normal", "scale": 2.0, "seed": null}, "class_name": "VarianceScaling"}}, "class_name": "LSTM"}, {"config": {"kernel_constraint": null, "bias_initializer": {"config": {}, "class_name": "Zeros"}, "unit_forget_bias": true, "recurrent_activation": "hard_sigmoid", "recurrent_initializer": {"config": {"gain": 1.0, "seed": null}, "class_name": "Orthogonal"}, "go_backwards": false, "activation": "tanh", "unroll": false, "use_bias": true, "bias_constraint": null, "dropout": 0.0, "trainable": true, "activity_regularizer": null, "recurrent_dropout": 0.0, "stateful": false, "implementation": 0, "recurrent_constraint": null, "bias_regularizer": null, "recurrent_regularizer": null, "return_sequences": true, "kernel_regularizer": null, "units": 32, "name": "lstm_3", "kernel_initializer": {"config": {"mode": "fan_in", "distribution": "normal", "scale": 2.0, "seed": null}, "class_name": "VarianceScaling"}}, "class_name": "LSTM"}, {"config": {"kernel_constraint": null, "bias_initializer": {"config": {}, "class_name": "Zeros"}, "unit_forget_bias": true, "recurrent_activation": "hard_sigmoid", "recurrent_initializer": {"config": {"gain": 1.0, "seed": null}, "class_name": "Orthogonal"}, "go_backwards": false, "activation": "tanh", "unroll": false, "use_bias": true, "bias_constraint": null, "dropout": 0.0, "trainable": true, "activity_regularizer": null, "recurrent_dropout": 0.0, "stateful": false, "implementation": 0, "recurrent_constraint": null, "bias_regularizer": null, "recurrent_regularizer": null, "return_sequences": true, "kernel_regularizer": null, "units": 32, "name": "lstm_4", "kernel_initializer": {"config": {"mode": "fan_in", "distribution": "normal", "scale": 2.0, "seed": null}, "class_name": "VarianceScaling"}}, "class_name": "LSTM"}, {"config": {"kernel_constraint": null, "bias_initializer": {"config": {}, "class_name": "Zeros"}, "unit_forget_bias": true, "recurrent_activation": "hard_sigmoid", "recurrent_initializer": {"config": {"gain": 1.0, "seed": null}, "class_name": "Orthogonal"}, "go_backwards": false, "activation": "tanh", "unroll": false, "use_bias": true, "bias_constraint": null, "dropout": 0.0, "trainable": true, "activity_regularizer": null, "recurrent_dropout": 0.0, "stateful": false, "implementation": 0, "recurrent_constraint": null, "bias_regularizer": null, "recurrent_regularizer": null, "return_sequences": true, "kernel_regularizer": null, "units": 32, "name": "lstm_5", "kernel_initializer": {"config": {"mode": "fan_in", "distribution": "normal", "scale": 2.0, "seed": null}, "class_name": "VarianceScaling"}}, "class_name": "LSTM"}, {"config": {"kernel_constraint": null, "bias_initializer": {"config": {}, "class_name": "Zeros"}, "unit_forget_bias": true, "recurrent_activation": "hard_sigmoid", "recurrent_initializer": {"config": {"gain": 1.0, "seed": null}, "class_name": "Orthogonal"}, "go_backwards": false, "activation": "tanh", "unroll": false, "use_bias": true, "bias_constraint": null, "dropout": 0.0, "trainable": true, "activity_regularizer": null, "recurrent_dropout": 0.0, "stateful": false, "implementation": 0, "recurrent_constraint": null, "bias_regularizer": null, "recurrent_regularizer": null, "return_sequences": true, "kernel_regularizer": null, "units": 16, "name": "lstm_6", "kernel_initializer": {"config": {"mode": "fan_in", "distribution": "normal", "scale": 2.0, "seed": null}, "class_name": "VarianceScaling"}}, "class_name": "LSTM"}, {"config": {"kernel_constraint": null, "bias_initializer": {"config": {}, "class_name": "Zeros"}, "unit_forget_bias": true, "recurrent_activation": "hard_sigmoid", "recurrent_initializer": {"config": {"gain": 1.0, "seed": null}, "class_name": "Orthogonal"}, "go_backwards": false, "activation": "tanh", "unroll": false, "use_bias": true, "bias_constraint": null, "dropout": 0.0, "trainable": true, "activity_regularizer": null, "recurrent_dropout": 0.0, "stateful": false, "implementation": 0, "recurrent_constraint": null, "bias_regularizer": null, "recurrent_regularizer": null, "return_sequences": true, "kernel_regularizer": null, "units": 64, "name": "lstm_7", "kernel_initializer": {"config": {"mode": "fan_in", "distribution": "normal", "scale": 2.0, "seed": null}, "class_name": "VarianceScaling"}}, "class_name": "LSTM"}, {"config": {"activity_regularizer": null, "bias_initializer": {"config": {}, "class_name": "Zeros"}, "trainable": true, "bias_regularizer": null, "activation": "relu", "kernel_regularizer": null, "bias_constraint": null, "use_bias": true, "units": 1, "name": "dense_1", "kernel_initializer": {"config": {"mode": "fan_in", "distribution": "normal", "scale": 2.0, "seed": null}, "class_name": "VarianceScaling"}, "kernel_constraint": null}, "class_name": "Dense"}], "keras_version": "2.0.2", "class_name": "Sequential"}