{"backend": "tensorflow", "config": [{"config": {"recurrent_dropout": 0.0, "kernel_initializer": {"config": {"scale": 2.0, "mode": "fan_in", "distribution": "normal", "seed": null}, "class_name": "VarianceScaling"}, "trainable": true, "bias_constraint": null, "stateful": false, "dtype": "float32", "batch_input_shape": [null, 1, 52], "units": 2, "recurrent_activation": "hard_sigmoid", "implementation": 0, "use_bias": true, "return_sequences": true, "unroll": false, "unit_forget_bias": true, "bias_regularizer": null, "kernel_constraint": null, "go_backwards": false, "recurrent_initializer": {"config": {"gain": 1.0, "seed": null}, "class_name": "Orthogonal"}, "kernel_regularizer": null, "recurrent_regularizer": null, "activation": "tanh", "bias_initializer": {"config": {}, "class_name": "Zeros"}, "recurrent_constraint": null, "activity_regularizer": null, "name": "lstm_1", "dropout": 0.0}, "class_name": "LSTM"}, {"config": {"recurrent_dropout": 0.0, "kernel_initializer": {"config": {"scale": 2.0, "mode": "fan_in", "distribution": "normal", "seed": null}, "class_name": "VarianceScaling"}, "trainable": true, "bias_constraint": null, "stateful": false, "activity_regularizer": null, "units": 8, "recurrent_activation": "hard_sigmoid", "implementation": 0, "use_bias": true, "return_sequences": true, "unroll": false, "unit_forget_bias": true, "bias_regularizer": null, "kernel_constraint": null, "go_backwards": false, "recurrent_initializer": {"config": {"gain": 1.0, "seed": null}, "class_name": "Orthogonal"}, "kernel_regularizer": null, "recurrent_regularizer": null, "activation": "tanh", "bias_initializer": {"config": {}, "class_name": "Zeros"}, "recurrent_constraint": null, "name": "lstm_2", "dropout": 0.0}, "class_name": "LSTM"}, {"config": {"recurrent_dropout": 0.0, "kernel_initializer": {"config": {"scale": 2.0, "mode": "fan_in", "distribution": "normal", "seed": null}, "class_name": "VarianceScaling"}, "trainable": true, "bias_constraint": null, "stateful": false, "activity_regularizer": null, "units": 32, "recurrent_activation": "hard_sigmoid", "implementation": 0, "use_bias": true, "return_sequences": true, "unroll": false, "unit_forget_bias": true, "bias_regularizer": null, "kernel_constraint": null, "go_backwards": false, "recurrent_initializer": {"config": {"gain": 1.0, "seed": null}, "class_name": "Orthogonal"}, "kernel_regularizer": null, "recurrent_regularizer": null, "activation": "tanh", "bias_initializer": {"config": {}, "class_name": "Zeros"}, "recurrent_constraint": null, "name": "lstm_3", "dropout": 0.0}, "class_name": "LSTM"}, {"config": {"recurrent_dropout": 0.0, "kernel_initializer": {"config": {"scale": 2.0, "mode": "fan_in", "distribution": "normal", "seed": null}, "class_name": "VarianceScaling"}, "trainable": true, "bias_constraint": null, "stateful": false, "activity_regularizer": null, "units": 32, "recurrent_activation": "hard_sigmoid", "implementation": 0, "use_bias": true, "return_sequences": true, "unroll": false, "unit_forget_bias": true, "bias_regularizer": null, "kernel_constraint": null, "go_backwards": false, "recurrent_initializer": {"config": {"gain": 1.0, "seed": null}, "class_name": "Orthogonal"}, "kernel_regularizer": null, "recurrent_regularizer": null, "activation": "tanh", "bias_initializer": {"config": {}, "class_name": "Zeros"}, "recurrent_constraint": null, "name": "lstm_4", "dropout": 0.0}, "class_name": "LSTM"}, {"config": {"recurrent_dropout": 0.0, "kernel_initializer": {"config": {"scale": 2.0, "mode": "fan_in", "distribution": "normal", "seed": null}, "class_name": "VarianceScaling"}, "trainable": true, "bias_constraint": null, "stateful": false, "activity_regularizer": null, "units": 32, "recurrent_activation": "hard_sigmoid", "implementation": 0, "use_bias": true, "return_sequences": true, "unroll": false, "unit_forget_bias": true, "bias_regularizer": null, "kernel_constraint": null, "go_backwards": false, "recurrent_initializer": {"config": {"gain": 1.0, "seed": null}, "class_name": "Orthogonal"}, "kernel_regularizer": null, "recurrent_regularizer": null, "activation": "tanh", "bias_initializer": {"config": {}, "class_name": "Zeros"}, "recurrent_constraint": null, "name": "lstm_5", "dropout": 0.0}, "class_name": "LSTM"}, {"config": {"recurrent_dropout": 0.0, "kernel_initializer": {"config": {"scale": 2.0, "mode": "fan_in", "distribution": "normal", "seed": null}, "class_name": "VarianceScaling"}, "trainable": true, "bias_constraint": null, "stateful": false, "activity_regularizer": null, "units": 8, "recurrent_activation": "hard_sigmoid", "implementation": 0, "use_bias": true, "return_sequences": true, "unroll": false, "unit_forget_bias": true, "bias_regularizer": null, "kernel_constraint": null, "go_backwards": false, "recurrent_initializer": {"config": {"gain": 1.0, "seed": null}, "class_name": "Orthogonal"}, "kernel_regularizer": null, "recurrent_regularizer": null, "activation": "tanh", "bias_initializer": {"config": {}, "class_name": "Zeros"}, "recurrent_constraint": null, "name": "lstm_6", "dropout": 0.0}, "class_name": "LSTM"}, {"config": {"recurrent_dropout": 0.0, "kernel_initializer": {"config": {"scale": 2.0, "mode": "fan_in", "distribution": "normal", "seed": null}, "class_name": "VarianceScaling"}, "trainable": true, "bias_constraint": null, "stateful": false, "activity_regularizer": null, "units": 2, "recurrent_activation": "hard_sigmoid", "implementation": 0, "use_bias": true, "return_sequences": true, "unroll": false, "unit_forget_bias": true, "bias_regularizer": null, "kernel_constraint": null, "go_backwards": false, "recurrent_initializer": {"config": {"gain": 1.0, "seed": null}, "class_name": "Orthogonal"}, "kernel_regularizer": null, "recurrent_regularizer": null, "activation": "tanh", "bias_initializer": {"config": {}, "class_name": "Zeros"}, "recurrent_constraint": null, "name": "lstm_7", "dropout": 0.0}, "class_name": "LSTM"}, {"config": {"kernel_constraint": null, "kernel_initializer": {"config": {"scale": 2.0, "mode": "fan_in", "distribution": "normal", "seed": null}, "class_name": "VarianceScaling"}, "use_bias": true, "activation": "relu", "activity_regularizer": null, "trainable": true, "bias_constraint": null, "name": "dense_1", "units": 1, "bias_regularizer": null, "bias_initializer": {"config": {}, "class_name": "Zeros"}, "kernel_regularizer": null}, "class_name": "Dense"}], "class_name": "Sequential", "keras_version": "2.0.2"}