{"config": [{"config": {"activation": "tanh", "dropout": 0.0, "unit_forget_bias": true, "bias_constraint": null, "use_bias": true, "go_backwards": false, "kernel_regularizer": null, "batch_input_shape": [null, 1, 52], "return_sequences": true, "recurrent_initializer": {"config": {"seed": null, "gain": 1.0}, "class_name": "Orthogonal"}, "recurrent_constraint": null, "dtype": "float32", "units": 128, "bias_regularizer": null, "unroll": false, "activity_regularizer": null, "name": "lstm_1", "recurrent_regularizer": null, "recurrent_activation": "hard_sigmoid", "kernel_constraint": null, "trainable": true, "recurrent_dropout": 0.0, "stateful": false, "implementation": 0, "kernel_initializer": {"config": {"scale": 2.0, "distribution": "normal", "seed": null, "mode": "fan_in"}, "class_name": "VarianceScaling"}, "bias_initializer": {"config": {}, "class_name": "Zeros"}}, "class_name": "LSTM"}, {"config": {"activation": "tanh", "dropout": 0.0, "unit_forget_bias": true, "bias_constraint": null, "use_bias": true, "go_backwards": false, "kernel_regularizer": null, "return_sequences": true, "recurrent_initializer": {"config": {"seed": null, "gain": 1.0}, "class_name": "Orthogonal"}, "recurrent_constraint": null, "units": 64, "bias_regularizer": null, "unroll": false, "activity_regularizer": null, "name": "lstm_2", "recurrent_regularizer": null, "recurrent_activation": "hard_sigmoid", "kernel_constraint": null, "trainable": true, "recurrent_dropout": 0.0, "stateful": false, "implementation": 0, "kernel_initializer": {"config": {"scale": 2.0, "distribution": "normal", "seed": null, "mode": "fan_in"}, "class_name": "VarianceScaling"}, "bias_initializer": {"config": {}, "class_name": "Zeros"}}, "class_name": "LSTM"}, {"config": {"activation": "tanh", "dropout": 0.0, "unit_forget_bias": true, "bias_constraint": null, "use_bias": true, "go_backwards": false, "kernel_regularizer": null, "return_sequences": true, "recurrent_initializer": {"config": {"seed": null, "gain": 1.0}, "class_name": "Orthogonal"}, "recurrent_constraint": null, "units": 32, "bias_regularizer": null, "unroll": false, "activity_regularizer": null, "name": "lstm_3", "recurrent_regularizer": null, "recurrent_activation": "hard_sigmoid", "kernel_constraint": null, "trainable": true, "recurrent_dropout": 0.0, "stateful": false, "implementation": 0, "kernel_initializer": {"config": {"scale": 2.0, "distribution": "normal", "seed": null, "mode": "fan_in"}, "class_name": "VarianceScaling"}, "bias_initializer": {"config": {}, "class_name": "Zeros"}}, "class_name": "LSTM"}, {"config": {"activation": "tanh", "dropout": 0.0, "unit_forget_bias": true, "bias_constraint": null, "use_bias": true, "go_backwards": false, "kernel_regularizer": null, "return_sequences": true, "recurrent_initializer": {"config": {"seed": null, "gain": 1.0}, "class_name": "Orthogonal"}, "recurrent_constraint": null, "units": 16, "bias_regularizer": null, "unroll": false, "activity_regularizer": null, "name": "lstm_4", "recurrent_regularizer": null, "recurrent_activation": "hard_sigmoid", "kernel_constraint": null, "trainable": true, "recurrent_dropout": 0.0, "stateful": false, "implementation": 0, "kernel_initializer": {"config": {"scale": 2.0, "distribution": "normal", "seed": null, "mode": "fan_in"}, "class_name": "VarianceScaling"}, "bias_initializer": {"config": {}, "class_name": "Zeros"}}, "class_name": "LSTM"}, {"config": {"activation": "tanh", "dropout": 0.0, "unit_forget_bias": true, "bias_constraint": null, "use_bias": true, "go_backwards": false, "kernel_regularizer": null, "return_sequences": true, "recurrent_initializer": {"config": {"seed": null, "gain": 1.0}, "class_name": "Orthogonal"}, "recurrent_constraint": null, "units": 8, "bias_regularizer": null, "unroll": false, "activity_regularizer": null, "name": "lstm_5", "recurrent_regularizer": null, "recurrent_activation": "hard_sigmoid", "kernel_constraint": null, "trainable": true, "recurrent_dropout": 0.0, "stateful": false, "implementation": 0, "kernel_initializer": {"config": {"scale": 2.0, "distribution": "normal", "seed": null, "mode": "fan_in"}, "class_name": "VarianceScaling"}, "bias_initializer": {"config": {}, "class_name": "Zeros"}}, "class_name": "LSTM"}, {"config": {"activation": "tanh", "dropout": 0.0, "unit_forget_bias": true, "bias_constraint": null, "use_bias": true, "go_backwards": false, "kernel_regularizer": null, "return_sequences": true, "recurrent_initializer": {"config": {"seed": null, "gain": 1.0}, "class_name": "Orthogonal"}, "recurrent_constraint": null, "units": 4, "bias_regularizer": null, "unroll": false, "activity_regularizer": null, "name": "lstm_6", "recurrent_regularizer": null, "recurrent_activation": "hard_sigmoid", "kernel_constraint": null, "trainable": true, "recurrent_dropout": 0.0, "stateful": false, "implementation": 0, "kernel_initializer": {"config": {"scale": 2.0, "distribution": "normal", "seed": null, "mode": "fan_in"}, "class_name": "VarianceScaling"}, "bias_initializer": {"config": {}, "class_name": "Zeros"}}, "class_name": "LSTM"}, {"config": {"activation": "tanh", "dropout": 0.0, "unit_forget_bias": true, "bias_constraint": null, "use_bias": true, "go_backwards": false, "kernel_regularizer": null, "return_sequences": true, "recurrent_initializer": {"config": {"seed": null, "gain": 1.0}, "class_name": "Orthogonal"}, "recurrent_constraint": null, "units": 2, "bias_regularizer": null, "unroll": false, "activity_regularizer": null, "name": "lstm_7", "recurrent_regularizer": null, "recurrent_activation": "hard_sigmoid", "kernel_constraint": null, "trainable": true, "recurrent_dropout": 0.0, "stateful": false, "implementation": 0, "kernel_initializer": {"config": {"scale": 2.0, "distribution": "normal", "seed": null, "mode": "fan_in"}, "class_name": "VarianceScaling"}, "bias_initializer": {"config": {}, "class_name": "Zeros"}}, "class_name": "LSTM"}, {"config": {"activation": "relu", "activity_regularizer": null, "name": "dense_1", "bias_constraint": null, "use_bias": true, "kernel_initializer": {"config": {"scale": 2.0, "distribution": "normal", "seed": null, "mode": "fan_in"}, "class_name": "VarianceScaling"}, "kernel_constraint": null, "trainable": true, "bias_initializer": {"config": {}, "class_name": "Zeros"}, "kernel_regularizer": null, "units": 1, "bias_regularizer": null}, "class_name": "Dense"}], "keras_version": "2.0.2", "backend": "tensorflow", "class_name": "Sequential"}