{"config": [{"config": {"dtype": "float32", "unroll": false, "bias_constraint": null, "recurrent_constraint": null, "use_bias": true, "batch_input_shape": [null, 1, 48], "stateful": false, "recurrent_regularizer": null, "unit_forget_bias": true, "go_backwards": false, "implementation": 0, "activity_regularizer": null, "bias_regularizer": null, "dropout": 0.0, "kernel_constraint": null, "recurrent_dropout": 0.0, "return_sequences": true, "recurrent_initializer": {"config": {"seed": null, "gain": 1.0}, "class_name": "Orthogonal"}, "activation": "tanh", "kernel_regularizer": null, "recurrent_activation": "hard_sigmoid", "bias_initializer": {"config": {}, "class_name": "Zeros"}, "name": "lstm_1", "kernel_initializer": {"config": {"scale": 2.0, "seed": null, "distribution": "normal", "mode": "fan_in"}, "class_name": "VarianceScaling"}, "units": 2, "trainable": true}, "class_name": "LSTM"}, {"config": {"unroll": false, "bias_constraint": null, "recurrent_constraint": null, "use_bias": true, "stateful": false, "recurrent_regularizer": null, "unit_forget_bias": true, "go_backwards": false, "implementation": 0, "activity_regularizer": null, "bias_regularizer": null, "dropout": 0.0, "kernel_constraint": null, "recurrent_dropout": 0.0, "return_sequences": true, "recurrent_initializer": {"config": {"seed": null, "gain": 1.0}, "class_name": "Orthogonal"}, "activation": "tanh", "kernel_regularizer": null, "recurrent_activation": "hard_sigmoid", "bias_initializer": {"config": {}, "class_name": "Zeros"}, "name": "lstm_2", "kernel_initializer": {"config": {"scale": 2.0, "seed": null, "distribution": "normal", "mode": "fan_in"}, "class_name": "VarianceScaling"}, "units": 2, "trainable": true}, "class_name": "LSTM"}, {"config": {"unroll": false, "bias_constraint": null, "recurrent_constraint": null, "use_bias": true, "stateful": false, "recurrent_regularizer": null, "unit_forget_bias": true, "go_backwards": false, "implementation": 0, "activity_regularizer": null, "bias_regularizer": null, "dropout": 0.0, "kernel_constraint": null, "recurrent_dropout": 0.0, "return_sequences": true, "recurrent_initializer": {"config": {"seed": null, "gain": 1.0}, "class_name": "Orthogonal"}, "activation": "tanh", "kernel_regularizer": null, "recurrent_activation": "hard_sigmoid", "bias_initializer": {"config": {}, "class_name": "Zeros"}, "name": "lstm_3", "kernel_initializer": {"config": {"scale": 2.0, "seed": null, "distribution": "normal", "mode": "fan_in"}, "class_name": "VarianceScaling"}, "units": 2, "trainable": true}, "class_name": "LSTM"}, {"config": {"unroll": false, "bias_constraint": null, "recurrent_constraint": null, "use_bias": true, "stateful": false, "recurrent_regularizer": null, "unit_forget_bias": true, "go_backwards": false, "implementation": 0, "activity_regularizer": null, "bias_regularizer": null, "dropout": 0.0, "kernel_constraint": null, "recurrent_dropout": 0.0, "return_sequences": true, "recurrent_initializer": {"config": {"seed": null, "gain": 1.0}, "class_name": "Orthogonal"}, "activation": "tanh", "kernel_regularizer": null, "recurrent_activation": "hard_sigmoid", "bias_initializer": {"config": {}, "class_name": "Zeros"}, "name": "lstm_4", "kernel_initializer": {"config": {"scale": 2.0, "seed": null, "distribution": "normal", "mode": "fan_in"}, "class_name": "VarianceScaling"}, "units": 2, "trainable": true}, "class_name": "LSTM"}, {"config": {"unroll": false, "bias_constraint": null, "recurrent_constraint": null, "use_bias": true, "stateful": false, "recurrent_regularizer": null, "unit_forget_bias": true, "go_backwards": false, "implementation": 0, "activity_regularizer": null, "bias_regularizer": null, "dropout": 0.0, "kernel_constraint": null, "recurrent_dropout": 0.0, "return_sequences": true, "recurrent_initializer": {"config": {"seed": null, "gain": 1.0}, "class_name": "Orthogonal"}, "activation": "tanh", "kernel_regularizer": null, "recurrent_activation": "hard_sigmoid", "bias_initializer": {"config": {}, "class_name": "Zeros"}, "name": "lstm_5", "kernel_initializer": {"config": {"scale": 2.0, "seed": null, "distribution": "normal", "mode": "fan_in"}, "class_name": "VarianceScaling"}, "units": 2, "trainable": true}, "class_name": "LSTM"}, {"config": {"unroll": false, "bias_constraint": null, "recurrent_constraint": null, "use_bias": true, "stateful": false, "recurrent_regularizer": null, "unit_forget_bias": true, "go_backwards": false, "implementation": 0, "activity_regularizer": null, "bias_regularizer": null, "dropout": 0.0, "kernel_constraint": null, "recurrent_dropout": 0.0, "return_sequences": true, "recurrent_initializer": {"config": {"seed": null, "gain": 1.0}, "class_name": "Orthogonal"}, "activation": "tanh", "kernel_regularizer": null, "recurrent_activation": "hard_sigmoid", "bias_initializer": {"config": {}, "class_name": "Zeros"}, "name": "lstm_6", "kernel_initializer": {"config": {"scale": 2.0, "seed": null, "distribution": "normal", "mode": "fan_in"}, "class_name": "VarianceScaling"}, "units": 2, "trainable": true}, "class_name": "LSTM"}, {"config": {"unroll": false, "bias_constraint": null, "recurrent_constraint": null, "use_bias": true, "stateful": false, "recurrent_regularizer": null, "unit_forget_bias": true, "go_backwards": false, "implementation": 0, "activity_regularizer": null, "bias_regularizer": null, "dropout": 0.0, "kernel_constraint": null, "recurrent_dropout": 0.0, "return_sequences": true, "recurrent_initializer": {"config": {"seed": null, "gain": 1.0}, "class_name": "Orthogonal"}, "activation": "tanh", "kernel_regularizer": null, "recurrent_activation": "hard_sigmoid", "bias_initializer": {"config": {}, "class_name": "Zeros"}, "name": "lstm_7", "kernel_initializer": {"config": {"scale": 2.0, "seed": null, "distribution": "normal", "mode": "fan_in"}, "class_name": "VarianceScaling"}, "units": 2, "trainable": true}, "class_name": "LSTM"}, {"config": {"kernel_constraint": null, "use_bias": true, "bias_constraint": null, "activation": "relu", "kernel_regularizer": null, "bias_initializer": {"config": {}, "class_name": "Zeros"}, "activity_regularizer": null, "bias_regularizer": null, "name": "dense_1", "kernel_initializer": {"config": {"scale": 2.0, "seed": null, "distribution": "normal", "mode": "fan_in"}, "class_name": "VarianceScaling"}, "units": 1, "trainable": true}, "class_name": "Dense"}], "class_name": "Sequential", "backend": "tensorflow", "keras_version": "2.0.2"}