{"config": [{"config": {"kernel_initializer": {"config": {"mode": "fan_in", "distribution": "normal", "seed": null, "scale": 2.0}, "class_name": "VarianceScaling"}, "recurrent_activation": "hard_sigmoid", "recurrent_initializer": {"config": {"seed": null, "gain": 1.0}, "class_name": "Orthogonal"}, "recurrent_dropout": 0.0, "return_sequences": true, "activation": "tanh", "batch_input_shape": [null, 1, 48], "activity_regularizer": null, "recurrent_regularizer": null, "stateful": false, "dropout": 0.0, "recurrent_constraint": null, "unit_forget_bias": true, "implementation": 0, "bias_regularizer": null, "use_bias": true, "dtype": "float32", "kernel_constraint": null, "trainable": true, "bias_initializer": {"config": {}, "class_name": "Zeros"}, "unroll": false, "name": "lstm_1", "kernel_regularizer": null, "go_backwards": false, "units": 2, "bias_constraint": null}, "class_name": "LSTM"}, {"config": {"kernel_initializer": {"config": {"mode": "fan_in", "distribution": "normal", "seed": null, "scale": 2.0}, "class_name": "VarianceScaling"}, "recurrent_activation": "hard_sigmoid", "recurrent_initializer": {"config": {"seed": null, "gain": 1.0}, "class_name": "Orthogonal"}, "recurrent_dropout": 0.0, "return_sequences": true, "activation": "tanh", "dropout": 0.0, "activity_regularizer": null, "recurrent_regularizer": null, "stateful": false, "implementation": 0, "recurrent_constraint": null, "unit_forget_bias": true, "bias_regularizer": null, "use_bias": true, "kernel_constraint": null, "trainable": true, "bias_initializer": {"config": {}, "class_name": "Zeros"}, "unroll": false, "name": "lstm_2", "kernel_regularizer": null, "go_backwards": false, "units": 4, "bias_constraint": null}, "class_name": "LSTM"}, {"config": {"kernel_initializer": {"config": {"mode": "fan_in", "distribution": "normal", "seed": null, "scale": 2.0}, "class_name": "VarianceScaling"}, "recurrent_activation": "hard_sigmoid", "recurrent_initializer": {"config": {"seed": null, "gain": 1.0}, "class_name": "Orthogonal"}, "recurrent_dropout": 0.0, "return_sequences": true, "activation": "tanh", "dropout": 0.0, "activity_regularizer": null, "recurrent_regularizer": null, "stateful": false, "implementation": 0, "recurrent_constraint": null, "unit_forget_bias": true, "bias_regularizer": null, "use_bias": true, "kernel_constraint": null, "trainable": true, "bias_initializer": {"config": {}, "class_name": "Zeros"}, "unroll": false, "name": "lstm_3", "kernel_regularizer": null, "go_backwards": false, "units": 8, "bias_constraint": null}, "class_name": "LSTM"}, {"config": {"kernel_initializer": {"config": {"mode": "fan_in", "distribution": "normal", "seed": null, "scale": 2.0}, "class_name": "VarianceScaling"}, "recurrent_activation": "hard_sigmoid", "recurrent_initializer": {"config": {"seed": null, "gain": 1.0}, "class_name": "Orthogonal"}, "recurrent_dropout": 0.0, "return_sequences": true, "activation": "tanh", "dropout": 0.0, "activity_regularizer": null, "recurrent_regularizer": null, "stateful": false, "implementation": 0, "recurrent_constraint": null, "unit_forget_bias": true, "bias_regularizer": null, "use_bias": true, "kernel_constraint": null, "trainable": true, "bias_initializer": {"config": {}, "class_name": "Zeros"}, "unroll": false, "name": "lstm_4", "kernel_regularizer": null, "go_backwards": false, "units": 2, "bias_constraint": null}, "class_name": "LSTM"}, {"config": {"kernel_initializer": {"config": {"mode": "fan_in", "distribution": "normal", "seed": null, "scale": 2.0}, "class_name": "VarianceScaling"}, "recurrent_activation": "hard_sigmoid", "recurrent_initializer": {"config": {"seed": null, "gain": 1.0}, "class_name": "Orthogonal"}, "recurrent_dropout": 0.0, "return_sequences": true, "activation": "tanh", "dropout": 0.0, "activity_regularizer": null, "recurrent_regularizer": null, "stateful": false, "implementation": 0, "recurrent_constraint": null, "unit_forget_bias": true, "bias_regularizer": null, "use_bias": true, "kernel_constraint": null, "trainable": true, "bias_initializer": {"config": {}, "class_name": "Zeros"}, "unroll": false, "name": "lstm_5", "kernel_regularizer": null, "go_backwards": false, "units": 8, "bias_constraint": null}, "class_name": "LSTM"}, {"config": {"kernel_initializer": {"config": {"mode": "fan_in", "distribution": "normal", "seed": null, "scale": 2.0}, "class_name": "VarianceScaling"}, "recurrent_activation": "hard_sigmoid", "recurrent_initializer": {"config": {"seed": null, "gain": 1.0}, "class_name": "Orthogonal"}, "recurrent_dropout": 0.0, "return_sequences": true, "activation": "tanh", "dropout": 0.0, "activity_regularizer": null, "recurrent_regularizer": null, "stateful": false, "implementation": 0, "recurrent_constraint": null, "unit_forget_bias": true, "bias_regularizer": null, "use_bias": true, "kernel_constraint": null, "trainable": true, "bias_initializer": {"config": {}, "class_name": "Zeros"}, "unroll": false, "name": "lstm_6", "kernel_regularizer": null, "go_backwards": false, "units": 4, "bias_constraint": null}, "class_name": "LSTM"}, {"config": {"kernel_initializer": {"config": {"mode": "fan_in", "distribution": "normal", "seed": null, "scale": 2.0}, "class_name": "VarianceScaling"}, "recurrent_activation": "hard_sigmoid", "recurrent_initializer": {"config": {"seed": null, "gain": 1.0}, "class_name": "Orthogonal"}, "recurrent_dropout": 0.0, "return_sequences": true, "activation": "tanh", "dropout": 0.0, "activity_regularizer": null, "recurrent_regularizer": null, "stateful": false, "implementation": 0, "recurrent_constraint": null, "unit_forget_bias": true, "bias_regularizer": null, "use_bias": true, "kernel_constraint": null, "trainable": true, "bias_initializer": {"config": {}, "class_name": "Zeros"}, "unroll": false, "name": "lstm_7", "kernel_regularizer": null, "go_backwards": false, "units": 2, "bias_constraint": null}, "class_name": "LSTM"}, {"config": {"kernel_initializer": {"config": {"mode": "fan_in", "distribution": "normal", "seed": null, "scale": 2.0}, "class_name": "VarianceScaling"}, "bias_regularizer": null, "use_bias": true, "bias_initializer": {"config": {}, "class_name": "Zeros"}, "kernel_constraint": null, "activation": "relu", "activity_regularizer": null, "name": "dense_1", "kernel_regularizer": null, "units": 1, "trainable": true, "bias_constraint": null}, "class_name": "Dense"}], "keras_version": "2.0.2", "backend": "tensorflow", "class_name": "Sequential"}