{"config": [{"config": {"bias_constraint": null, "trainable": true, "recurrent_activation": "hard_sigmoid", "go_backwards": false, "return_sequences": true, "recurrent_regularizer": null, "bias_initializer": {"config": {}, "class_name": "Zeros"}, "batch_input_shape": [null, 1, 52], "stateful": false, "dropout": 0.0, "units": 2, "recurrent_dropout": 0.0, "dtype": "float32", "name": "lstm_1", "kernel_regularizer": null, "unit_forget_bias": true, "implementation": 0, "use_bias": true, "activity_regularizer": null, "kernel_initializer": {"config": {"seed": null, "scale": 2.0, "distribution": "normal", "mode": "fan_in"}, "class_name": "VarianceScaling"}, "activation": "tanh", "recurrent_constraint": null, "unroll": false, "bias_regularizer": null, "recurrent_initializer": {"config": {"seed": null, "gain": 1.0}, "class_name": "Orthogonal"}, "kernel_constraint": null}, "class_name": "LSTM"}, {"config": {"bias_constraint": null, "trainable": true, "recurrent_activation": "hard_sigmoid", "go_backwards": false, "return_sequences": true, "recurrent_regularizer": null, "bias_initializer": {"config": {}, "class_name": "Zeros"}, "stateful": false, "units": 8, "recurrent_dropout": 0.0, "name": "lstm_2", "kernel_regularizer": null, "unit_forget_bias": true, "implementation": 0, "use_bias": true, "activity_regularizer": null, "dropout": 0.0, "activation": "tanh", "recurrent_constraint": null, "unroll": false, "bias_regularizer": null, "recurrent_initializer": {"config": {"seed": null, "gain": 1.0}, "class_name": "Orthogonal"}, "kernel_constraint": null, "kernel_initializer": {"config": {"seed": null, "scale": 2.0, "distribution": "normal", "mode": "fan_in"}, "class_name": "VarianceScaling"}}, "class_name": "LSTM"}, {"config": {"bias_constraint": null, "trainable": true, "recurrent_activation": "hard_sigmoid", "go_backwards": false, "return_sequences": true, "recurrent_regularizer": null, "bias_initializer": {"config": {}, "class_name": "Zeros"}, "stateful": false, "units": 64, "recurrent_dropout": 0.0, "name": "lstm_3", "kernel_regularizer": null, "unit_forget_bias": true, "implementation": 0, "use_bias": true, "activity_regularizer": null, "dropout": 0.0, "activation": "tanh", "recurrent_constraint": null, "unroll": false, "bias_regularizer": null, "recurrent_initializer": {"config": {"seed": null, "gain": 1.0}, "class_name": "Orthogonal"}, "kernel_constraint": null, "kernel_initializer": {"config": {"seed": null, "scale": 2.0, "distribution": "normal", "mode": "fan_in"}, "class_name": "VarianceScaling"}}, "class_name": "LSTM"}, {"config": {"bias_constraint": null, "trainable": true, "recurrent_activation": "hard_sigmoid", "go_backwards": false, "return_sequences": true, "recurrent_regularizer": null, "bias_initializer": {"config": {}, "class_name": "Zeros"}, "stateful": false, "units": 64, "recurrent_dropout": 0.0, "name": "lstm_4", "kernel_regularizer": null, "unit_forget_bias": true, "implementation": 0, "use_bias": true, "activity_regularizer": null, "dropout": 0.0, "activation": "tanh", "recurrent_constraint": null, "unroll": false, "bias_regularizer": null, "recurrent_initializer": {"config": {"seed": null, "gain": 1.0}, "class_name": "Orthogonal"}, "kernel_constraint": null, "kernel_initializer": {"config": {"seed": null, "scale": 2.0, "distribution": "normal", "mode": "fan_in"}, "class_name": "VarianceScaling"}}, "class_name": "LSTM"}, {"config": {"bias_constraint": null, "trainable": true, "recurrent_activation": "hard_sigmoid", "go_backwards": false, "return_sequences": true, "recurrent_regularizer": null, "bias_initializer": {"config": {}, "class_name": "Zeros"}, "stateful": false, "units": 64, "recurrent_dropout": 0.0, "name": "lstm_5", "kernel_regularizer": null, "unit_forget_bias": true, "implementation": 0, "use_bias": true, "activity_regularizer": null, "dropout": 0.0, "activation": "tanh", "recurrent_constraint": null, "unroll": false, "bias_regularizer": null, "recurrent_initializer": {"config": {"seed": null, "gain": 1.0}, "class_name": "Orthogonal"}, "kernel_constraint": null, "kernel_initializer": {"config": {"seed": null, "scale": 2.0, "distribution": "normal", "mode": "fan_in"}, "class_name": "VarianceScaling"}}, "class_name": "LSTM"}, {"config": {"bias_constraint": null, "trainable": true, "recurrent_activation": "hard_sigmoid", "go_backwards": false, "return_sequences": true, "recurrent_regularizer": null, "bias_initializer": {"config": {}, "class_name": "Zeros"}, "stateful": false, "units": 8, "recurrent_dropout": 0.0, "name": "lstm_6", "kernel_regularizer": null, "unit_forget_bias": true, "implementation": 0, "use_bias": true, "activity_regularizer": null, "dropout": 0.0, "activation": "tanh", "recurrent_constraint": null, "unroll": false, "bias_regularizer": null, "recurrent_initializer": {"config": {"seed": null, "gain": 1.0}, "class_name": "Orthogonal"}, "kernel_constraint": null, "kernel_initializer": {"config": {"seed": null, "scale": 2.0, "distribution": "normal", "mode": "fan_in"}, "class_name": "VarianceScaling"}}, "class_name": "LSTM"}, {"config": {"bias_constraint": null, "trainable": true, "recurrent_activation": "hard_sigmoid", "go_backwards": false, "return_sequences": true, "recurrent_regularizer": null, "bias_initializer": {"config": {}, "class_name": "Zeros"}, "stateful": false, "units": 2, "recurrent_dropout": 0.0, "name": "lstm_7", "kernel_regularizer": null, "unit_forget_bias": true, "implementation": 0, "use_bias": true, "activity_regularizer": null, "dropout": 0.0, "activation": "tanh", "recurrent_constraint": null, "unroll": false, "bias_regularizer": null, "recurrent_initializer": {"config": {"seed": null, "gain": 1.0}, "class_name": "Orthogonal"}, "kernel_constraint": null, "kernel_initializer": {"config": {"seed": null, "scale": 2.0, "distribution": "normal", "mode": "fan_in"}, "class_name": "VarianceScaling"}}, "class_name": "LSTM"}, {"config": {"kernel_initializer": {"config": {"seed": null, "scale": 2.0, "distribution": "normal", "mode": "fan_in"}, "class_name": "VarianceScaling"}, "trainable": true, "kernel_constraint": null, "bias_initializer": {"config": {}, "class_name": "Zeros"}, "activation": "relu", "use_bias": true, "units": 1, "name": "dense_1", "bias_constraint": null, "kernel_regularizer": null, "bias_regularizer": null, "activity_regularizer": null}, "class_name": "Dense"}], "keras_version": "2.0.2", "class_name": "Sequential", "backend": "tensorflow"}